Case study 2/Hybrid/best_model/ppo_actor.pth (torch, 38623 bytes, 16 tensors)

fc1.weight f4 [64, 6]
000000 c8 5a c5 3d 64 4e b4 be fc 26 b9 bd 10 21 c0 be
       0.09636456 -0.35216057 -0.09040639 -0.37525225
000010 6c 01 a5 bd 9e c1 94 be 00 3f 04 bd 60 e0 24 bc
       -0.08056912 -0.29053968 -0.032286644 -0.010063261
000020 fc f3 9a 3d 30 b7 c1 3e 39 9a 9d be 88 3e 9f bd
       0.075660676 0.37835073 -0.30781725 -0.07775599
000030 00 73 a2 ba 66 7e d0 3e 24 5a af 3d 60 31 99 3c
       -0.0012393892 0.40721434 0.08562115 0.018700302
000040 b4 09 25 3e ba 98 50 be dc 1a e6 bd d0 8a fd bc
       0.16116983 -0.2037076 -0.11235592 -0.03094998
000050 d8 61 33 3e 80 81 9c 3b f6 5e bb be da ba 51 be
       0.17517793 0.00477618 -0.36595887 -0.20481434
000060 24 ca 59 be 58 47 80 bd ba 1e d0 be e8 82 1a 3e
       -0.21268517 -0.06263608 -0.40648443 0.15089
000070 bc c1 50 3e fb f6 51 be b4 77 fc bd ee ca 7e be
       0.20386404 -0.20504372 -0.12327519 -0.24882099
000080 67 95 38 be 27 dd 4e be 24 fb c9 bd d4 8f 60 3e
       -0.18025742 -0.2020155 -0.098623544 0.21929866
000090 60 72 1f 3e 8c 39 53 3e 55 88 9f be 42 a0 9a 3e
       0.15570974 0.20627421 -0.311587 0.30200392
0000a0 48 c6 8d 3e e7 cb ba be 73 bf 89 be 44 73 2e be
       0.2769034 -0.3648369 -0.26903877 -0.17036158
0000b0 48 37 64 3d 63 23 c1 be ae 0a 3f be c8 25 26 3e
       0.055716783 -0.3772231 -0.18656418 0.1622535
0000c0 4b 8d a9 be bc c0 0f 3e f8 a1 cb bd a2 42 9c 3e
       -0.3311561 0.14038366 -0.099430025 0.30519587
0000d0 5c 84 3d 3e e6 89 bb 3e d0 9c 4c bd 50 98 09 bd
       0.18507522 0.36628646 -0.049954236 -0.033592522
0000e0 1f 05 c2 be bc ac f6 bd a5 c3 c0 be 38 39 bb bd
       -0.37894532 -0.12044665 -0.37649265 -0.09141773
0000f0 54 e2 99 be 00 50 be 3a 96 a5 80 3e 26 b1 b4 3e
       -0.30055487 0.0014519691 0.25126332 0.35291404
000100 b0 82 63 3d 00 0f 37 3b 91 a2 74 be 30 22 94 bc
       0.055544555 0.0027932525 -0.23890139 -0.018082708
000110 b4 48 85 bd 1c d0 a4 bd b3 cd be be 60 39 f9 3d
       -0.06508008 -0.08047506 -0.3726631 0.121691465
000120 68 80 a7 3e 00 e1 88 3e e0 3b cb bd 68 82 52 3e
       0.32715154 0.2673416 -0.099235296 0.20557559
000130 0f b1 34 be dc 96 39 3e aa 01 8f 3e da 2a 53 be
       -0.17645667 0.18123955 0.27930957 -0.20621815
000140 4c 5e 19 3e d0 fc b9 be 74 1f 6c 3e 90 82 72 3e
       0.14977378 -0.36325693 0.23058873 0.23682618
000150 36 24 c0 3e ec 10 b2 3d b4 cd 9a 3d 0c 46 40 3e
       0.37527627 0.08694634 0.07558766 0.18776721
000160 bc 55 c7 3e e4 a9 c3 3e 02 8f 92 be f8 bb c9 3e
       0.38932598 0.38215554 -0.2862473 0.3940122
000170 a8 32 74 3e 50 b8 8c 3d fc 78 c1 3e ea 20 17 be
       0.23847449 0.06871092 0.37787616 -0.1475865
000180 28 b4 7a 3d c4 b8 90 be e4 aa 4d be a2 97 c4 3e
       0.061206967 -0.28265965 -0.20084721 0.38396937
000190 00 12 d2 3a 4b ae 25 be 7c 36 a0 3e e4 b7 80 be
       0.0016027093 -0.16179769 0.31291568 -0.25140297
0001a0 60 9a 60 3e f7 0d 4f be 14 cd de bd 6b ce bc be
       0.2193389 -0.20220171 -0.10878959 -0.36876234
0001b0 bc 91 6c 3e 64 e5 29 3e 28 63 3d 3e 10 c6 84 3d
       0.23102468 0.16591412 0.18494856 0.0648309
0001c0 e8 fb 95 be b4 ca 81 3e 3c 14 b3 3e 7a cc b9 3e
       -0.29293752 0.25349963 0.34976375 0.36288816
0001d0 44 8e 00 3e 40 5e e6 3c 1c ef 7c 3e 38 e0 21 3d
       0.1255427 0.028121114 0.24700588 0.039520472
0001e0 b8 be 76 3d 58 89 81 bd fc 8e 51 3e ac 37 09 3e
       0.060240477 -0.06325024 0.204647 0.13400143
0001f0 b4 63 1c be 0e b6 b7 3e a2 fa 19 be 4c 8d bb 3e
       -0.15272409 0.35881084 -0.15037015 0.36631238
000200 c9 7c 43 be 1a bd 90 be c0 6f 24 bd 64 83 59 3e
       -0.1909057 -0.28269273 -0.040145636 0.21241528
000210 42 49 88 3e 00 e3 d8 ba 80 88 a7 be 7c db 3f be
       0.2661839 -0.0016547143 -0.3272133 -0.1873607
000220 38 4e 0e be 49 2c aa be c0 e3 3e 3c 40 d9 da 3b
       -0.13897026 -0.33236912 0.0116509795 0.0066787302
000230 54 53 54 3e d4 ac 0f 3e 68 46 94 3e 00 f2 0a 3e
       0.20734912 0.14030772 0.28959966 0.13568878
000240 69 4e a6 be c8 45 05 be 9e e1 26 be 58 e1 05 3e
       -0.32481697 -0.130149 -0.16297004 0.13074243
000250 0e 99 64 be fe f4 8f 3e f8 e2 80 3e 54 68 7f 3e
       -0.2232401 0.28116602 0.25173163 0.24942142
000260 38 1c 31 3d 38 ca b6 be 08 cb ad 3e fc 4a 8c bd
       0.043239802 -0.35701156 0.33943963 -0.0685024
000270 94 95 b3 bd 72 47 83 3e a4 e3 b1 3e 49 dc be be
       -0.08768764 0.25640446 0.3474399 -0.3727744
000280 50 e8 47 3d cc 38 6f 3e a4 2b 5a 3e fc 29 ce be
       0.048805535 0.2336151 0.2130571 -0.40266407
000290 0b b2 bd be c8 0d 2e 3e f0 d5 b1 bd df f1 61 be
       -0.37049899 0.16997445 -0.086833835 -0.22064923
0002a0 82 07 27 be e0 32 51 3d 64 43 02 be 6c cb 21 3e
       -0.16311458 0.05107391 -0.1272102 0.15800256
0002b0 78 0c 79 3e d0 04 c8 be d6 77 9b be 97 10 30 be
       0.24321163 -0.39066172 -0.30364865 -0.17193829
0002c0 d4 ad 73 3e a4 21 33 be e0 57 f5 3d fe 21 8c 3e
       0.23796779 -0.17493302 0.119796515 0.27369684
0002d0 ae 5d 44 be f8 3a 7b bd 2a 59 cc 3e d0 7e b4 be
       -0.19176361 -0.061335534 0.39911777 -0.35253
0002e0 44 7e 1b be a6 82 ca be d1 3e 73 be 30 c7 3f be
       -0.15184885 -0.39552802 -0.23754431 -0.18728328
0002f0 54 d9 c5 3e 28 eb 21 be 06 93 99 3e 40 b7 58 bc
       0.3864237 -0.15812361 0.29994982 -0.013227284
000300 58 f9 ab 3d 64 fe a3 3d 0c 6d c5 3e be 50 bb 3e
       0.08397168 0.080075055 0.3855976 0.3658504
000310 8e 85 9a 3e 56 59 8a 3e 83 21 2a be b8 d7 1e 3e
       0.3018002 0.27021283 -0.16614346 0.15511978
000320 ac 1e 3a 3e 60 4d 53 3e 68 08 2a bd 79 bd 30 be
       0.18175763 0.20634985 -0.041511923 -0.17259778
000330 00 b5 59 3b 2c 8b c0 3e 74 1d 19 3e ac c4 87 3d
       0.0033219457 0.3760618 0.14952642 0.06629309
000340 c0 44 bb be 84 ea 6a 3e 76 be c8 be 14 98 97 bd
       -0.3657589 0.22941023 -0.3920781 -0.074020535
000350 7c 79 14 3e 3e cb c9 be a0 38 b2 3c e0 8f 91 3e
       0.14499468 -0.39412874 0.021755517 0.2843008
000360 54 3f dc bd 4c a8 c9 bd c0 e1 bb be 98 9d cc bd
       -0.107542664 -0.09846553 -0.3669567 -0.09990996
000370 8c c3 c8 3e cc 79 f0 bd b8 b6 7a 3e f4 6c 90 3d
       0.3921169 -0.11741981 0.24483764 0.07052031
000380 00 eb be ba 38 8a 0a 3e c0 01 6b 3c 8c da 97 bd
       -0.0014565885 0.13529289 0.014343679 -0.074147314
000390 80 87 cb 3d a0 53 1b 3c 90 99 cb 3e 3a 6f 86 3e
       0.09937954 0.009480387 0.39765596 0.26256734
0003a0 08 f4 b0 be ea 6d 1d be e8 f6 ce be 34 ee 45 3e
       -0.3456118 -0.1537396 -0.4042275 0.19329149
0003b0 20 36 ae 3e 60 9a 67 be 68 e1 24 3d eb da 4a be
       0.3402567 -0.22617483 0.040254027 -0.19810073
0003c0 58 97 b5 3d 80 22 62 3b bc 62 5f be 88 c0 60 bd
       0.08866757 0.0034505427 -0.21815008 -0.054871112
0003d0 cc af 3c 3e 30 ed 2f 3d 1c 6a 6e 3e 88 45 ec bd
       0.18426436 0.04295081 0.23282665 -0.115366995
0003e0 78 2a 8c 3d f8 dd 8d bd f4 26 a4 3e de 21 a4 3e
       0.06844038 -0.06927103 0.3206097 0.3205709
0003f0 68 9f bd 3d 20 50 b1 3c 4b 8c 66 be 26 26 9c be
       0.0925892 0.021644652 -0.22514455 -0.30497855

fc1.bias f4 [64]
000000 f8 c2 28 3e 24 b2 5e 3e f6 9b b9 3e 40 6e b7 3e
       0.16480625 0.21747643 0.362518 0.35826302
000010 e0 b4 2a 3e 48 e0 0d 3d 02 df 92 3e e4 2e bd be
       0.16670561 0.03463772 0.28685766 -0.36949837
000020 ec dc 18 be 40 b7 28 3c c0 c2 af 3b 08 28 a4 bd
       -0.14928025 0.010297596 0.005363792 -0.08015448
000030 c0 69 98 3e 70 03 55 be 61 41 cc be 80 bc a6 3d
       0.2976818 -0.20802093 -0.3989363 0.08141422
000040 a0 0b cb bc c4 31 fa bd b0 5b a1 3c 0f 2e c1 be
       -0.024785817 -0.12216523 0.01969704 -0.37730452
000050 a8 f3 d6 bd cc 7b 11 3e c8 5c fb bd 34 6d a8 3d
       -0.104956925 0.14207381 -0.12273556 0.08223954
000060 80 3c 8b 3b 8e 9b be 3e 90 2e 06 be 06 f0 a1 3e
       0.0042491555 0.37228054 -0.131037 0.31628436
000070 6a 8b 8f be 4a 45 b1 3e 20 b2 87 3e 7d 0c c5 be
       -0.28036052 0.34623176 0.26503086 -0.3848609
000080 ce 55 88 3e 54 53 dc bd b4 56 2e 3e af 93 a4 be
       0.26627964 -0.10758081 0.17025262 -0.32143924
000090 28 49 c1 bd b8 1d 56 bd a4 d2 ec bd 4a 05 05 be
       -0.094377816 -0.052274436 -0.11563614 -0.12990299
0000a0 76 e6 81 be 80 cf c0 3d 28 18 16 3e 40 19 5f 3e
       -0.2537114 0.094145775 0.14657652 0.21786976
0000b0 a8 ce fb bd 22 fb b5 3e 94 f2 15 be c8 19 2b 3e
       -0.12295276 0.35543162 -0.14643317 0.16709054
0000c0 e8 3e e8 bd 45 66 8a be c4 e4 c9 be b9 34 ab be
       -0.113401234 -0.2703115 -0.39432347 -0.33438662
0000d0 e0 20 eb bc 70 21 5e 3e e7 71 a2 be 00 5c d1 3b
       -0.0287022 0.21692443 -0.31727526 0.006389141
0000e0 48 c8 50 3e 9e 88 ac 3e d4 66 02 3e f6 a0 cd be
       0.20388901 0.3369798 0.12734538 -0.40161866
0000f0 08 91 89 bd f6 04 bf 3e 28 6b 9b 3e 14 39 bf 3e
       -0.06717116 0.37308472 0.3035519 0.37348235

fc2.weight f4 [64, 64]
000000 20 85 97 3b 2c f1 23 bd e6 50 e9 bd f4 72 b4 3d
       0.004624024 -0.04002492 -0.11392383 0.08810988
000010 d0 ea 9b bd c8 64 48 3d dc 3d b1 3d 64 15 b7 3d
       -0.07613146 0.048924237 0.08654377 0.08939627
000020 22 c0 c0 bd c4 79 9f 3d 36 55 fe 3d 26 d2 84 bd
       -0.094116464 0.07786897 0.124185964 -0.06485395
000030 1e b7 90 bd ce 94 f7 3d e8 d1 4e 3d 76 5d ee bd
       -0.07066177 0.12088929 0.05049315 -0.1163892
000040 f8 cf 4f 3d d4 d1 42 3d 28 1e f0 bc 48 82 87 3c
       0.050735444 0.04756339 -0.029311255 0.016541615
000050 58 a7 f2 bd 90 73 22 bc f4 40 74 3d e0 99 60 bd
       -0.118483245 -0.009915248 0.059632257 -0.054834247
000060 f0 12 0c bc 62 0d a9 bd ac 5c 6c 3d 08 f4 d0 3d
       -0.008549437 -0.08254506 0.057705566 0.10202795
000070 50 87 05 bd c8 a8 65 3d 48 c5 19 3d 04 b8 6a bd
       -0.032599747 0.056069165 0.037541658 -0.057304397
000080 b0 a1 aa bc 76 ad e7 bd 80 64 41 bd ae a7 f4 3d
       -0.020829052 -0.11312382 -0.047214985 0.11946045
000090 64 a9 6d 3d 2c c5 35 bd 60 72 9d bb 38 59 cf bc
       0.05802287 -0.04437749 -0.0048048943 -0.025311098
0000a0 a6 3f bd 3d c0 c9 79 bd fc 98 71 bd 6e f0 ec 3d
       0.092406556 -0.06098342 -0.058983788 0.11569296
0000b0 30 4d 8c bd ba e9 98 bd 9a f9 9b bd 06 ae e4 3d
       -0.0685066 -0.07466455 -0.07615967 0.11166005
0000c0 14 ba a7 3d c0 43 d1 bd c0 1d 97 bb 48 b0 85 3c
       0.081897885 -0.102180004 -0.004611701 0.016319409
0000d0 78 b7 d3 3c 12 4f 87 bd b0 9d c4 bc 52 f6 9a 3d
       0.02584432 -0.06606878 -0.024000973 0.07566513
0000e0 8c 49 d0 3d 5c 53 9a 3d 60 59 90 bb d6 94 dc bd
       0.10170278 0.07535431 -0.0044051856 -0.10770576
0000f0 c0 7a 5b bb fc bc 17 bd 38 11 d3 3d 0c da b2 3d
       -0.0033489913 -0.037045464 0.103060186 0.087329954
000100 dc 54 04 3d 88 42 bb bc 28 7e ae bc 88 95 7b bd
       0.03230749 -0.022858873 -0.02130039 -0.0614219
000110 82 8f 89 bd 8c 0a ac bd ce bc 90 bd 48 29 da bd
       -0.06716825 -0.08400449 -0.07067262 -0.10652405
000120 00 cf ac 3d 90 7d 60 3c 6c c4 61 3d 00 dc 9c 3b
       0.084379196 0.013701811 0.055118963 0.004786968
000130 ba 5c f3 bd 7c 13 3c bd c4 33 54 3d d8 bc b7 3c
       -0.118829206 -0.04591702 0.05180718 0.022428915
000140 44 5f 02 bd ac ea 3f 3d 40 20 e1 3b 74 f7 63 bd
       -0.031829134 0.04685466 0.0068702996 -0.05565591
000150 48 e1 98 bc ec 56 3c bd e0 94 42 bd 38 f8 93 bd
       -0.01866211 -0.045981333 -0.04750526 -0.07225078
000160 38 da cb bc e8 8d d8 3d 7c 82 fb bd 02 6d b6 3d
       -0.024884328 0.105739415 -0.12280747 0.0890751
000170 0e 03 f5 3d 48 73 82 3d ba f2 b8 bd 84 07 0a bd
       0.11963473 0.063696444 -0.090306714 -0.033698574
000180 e0 90 35 3d a2 ed f5 3d 6c 2e e7 3d 94 12 6d 3d
       0.044327617 0.120082155 0.11288151 0.057879046
000190 3a cd b8 bd a0 e0 9c 3c ac 34 45 3d 6e 6c 81 bd
       -0.09023519 0.019150078 0.048145935 -0.063195094
0001a0 2c fc db bd 78 af 4d 3d 5e ae a1 bd 10 2a 69 bd
       -0.10741457 0.05021617 -0.07894586 -0.05692488
0001b0 1a bc ba 3d 68 28 de bd d4 26 0b 3d 8c 99 41 3d
       0.09117909 -0.10847551 0.033972576 0.047265574
0001c0 a2 23 c4 3d 9a fa 86 bd f8 b9 9d 3c 00 1d bf bd
       0.09577109 -0.06590767 0.019253716 -0.09331703
0001d0 8e 80 8e bd 6a cf df bd ea fb dc 3d 8e b9 e7 bd
       -0.069581136 -0.10928233 0.10790236 -0.113146886
0001e0 40 57 19 bc 38 4f c9 3d 50 db 3c 3c 40 80 93 bc
       -0.009359181 0.09829563 0.011526898 -0.01800549
0001f0 84 c4 f7 bd 80 34 93 3d a0 3b 59 bc 28 58 da bd
       -0.12098029 0.07187748 -0.013258845 -0.10661346
000200 48 53 fb bd ae 3c ea 3d 20 78 84 3b 84 76 df bd
       -0.12271744 0.11437355 0.0040426403 -0.10911277
000210 70 42 02 bd 00 da b0 ba a0 c8 83 3c e8 c5 65 3d
       -0.03180164 -0.0013492703 0.016086876 0.05609694
000220 80 11 4f bd b8 15 8f bd 50 8a 4b bc ce 0b d6 3d
       -0.0505538 -0.069865644 -0.012423113 0.1045147
000230 a6 28 eb bd 10 d9 b7 bd 0c fa 6b 3d b4 8c 72 3d
       -0.114823624 -0.08976948 0.05761151 0.059216216
000240 dc 35 26 3d 32 de b0 3d 68 53 c8 3d 62 31 aa bd
       0.040578708 0.086361304 0.097815335 -0.083102
000250 9e 3e fe bd 44 b3 bf bd 08 33 96 3d 46 d4 ff bd
       -0.12414287 -0.09360364 0.07333952 -0.1249166
000260 e8 25 ca 3c 5e 52 9e bd d4 86 61 bd 68 51 7c bd
       0.024676278 -0.07730554 -0.055060223 -0.061601073
000270 84 c6 cf bd 74 eb 61 bd be 54 a8 3d c6 59 89 bd
       -0.10145286 -0.055156186 0.08219288 -0.06706576
000280 70 94 80 3d 3a 8b f8 bd d2 24 d9 3d 0c e9 98 bd
       0.06278312 -0.1213593 0.10602726 -0.07466325
000290 64 6d 87 bd 0e e7 e7 bd e6 59 8c bd 94 cc 0c bd
       -0.066126615 -0.11323367 -0.06853084 -0.03437479
0002a0 c0 bd fc bc 4e 7f 82 3d 42 7f b9 bd ec c2 72 3d
       -0.030852199 0.06371938 -0.090574756 0.059267923
0002b0 70 09 de 3c 40 8c 19 3b 90 71 fd 3c e0 bc 6b bd
       0.02710411 0.0023429543 0.03093794 -0.057553172
0002c0 30 e2 35 3d 1c 1a 35 bd 00 6f 7b bc a8 dc 96 bc
       0.044405162 -0.044214353 -0.015346289 -0.018415764
0002d0 d4 32 c2 bd 84 d6 ba bd 12 4e e3 bd 42 97 d9 bd
       -0.09482351 -0.09122947 -0.11098875 -0.10624553
0002e0 d0 e1 dc bd e8 1f ee bc 3a 38 91 bd 40 00 aa bc
       -0.10785258 -0.029067948 -0.070908025 -0.020752072
0002f0 62 e3 b8 bd da 56 84 bd cc 28 16 bd 4a 88 a6 bd
       -0.09027745 -0.06461878 -0.03666 -0.08131464
000300 00 48 58 3d 60 43 cd bd e8 fd 00 bd e8 5c 53 bd
       0.05280304 -0.100226164 -0.031492144 -0.051602274
000310 0c 12 11 3d f4 c7 ff bd 04 e3 e7 bd d4 e1 0e bd
       0.0354176 -0.1248931 -0.11322597 -0.034883335
000320 34 ab 2d bd a0 d6 1a bd 94 4d 2b 3d 02 ee b7 3d
       -0.0423996 -0.03780234 0.04182203 0.08980943
000330 a0 ce 7d bd 40 27 90 bb 3e 70 b4 bd 64 a6 52 bd
       -0.06196463 -0.00439921 -0.08810471 -0.051428214
000340 88 6d d2 3d 88 24 27 3d 3c 40 66 3d 5c 49 c3 3d
       0.10274798 0.040806323 0.056213602 0.095354766
000350 80 a3 b2 bd 00 0f 68 3d 58 6c e3 3d dc cd b7 3d
       -0.087225914 0.05665493 0.11104649 0.089748114
000360 40 04 c7 3c 40 b6 a2 bd b4 cc 9e bd 10 98 bb bd
       0.024294019 -0.07944918 -0.07753888 -0.09159863
000370 68 26 ae 3c 60 9b aa 3d c8 38 e4 bd c8 74 1a 3d
       0.021258548 0.08330417 -0.11143643 0.037709028
000380 60 de 95 3d 94 1c e9 bd ec b6 ff bd 00 14 7c ba
       0.07317805 -0.11382404 -0.124860615 -0.00096160173
000390 62 de fe bd 7c 85 03 bd 8a c6 fc bd e8 ce 4c bd
       -0.1244476 -0.032109722 -0.12342556 -0.05000201
0003a0 cc fd ea 3d c8 9d e6 3c a4 cf 64 3d 34 46 0a 3d
       0.11474189 0.028151408 0.055862084 0.033758357
0003b0 70 8c 00 bc 48 e6 12 3d d8 d9 ba 3d 80 21 e3 3b
       -0.007845983 0.035864145 0.09123582 0.0069314837
0003c0 0a a9 e4 3d 46 83 aa bd 66 4f b9 3d e8 6e cc 3c
       0.11165054 -0.0832582 0.09048347 0.024955228
0003d0 1c 60 5b bd 8a ce c2 3d e0 3b e0 bb 60 aa d4 3c
       -0.053558454 0.095120504 -0.006843075 0.025960147
0003e0 a0 cb c2 3c 08 dd 68 3d 68 df b3 3c 68 5e 05 bd
       0.023778737 0.056851417 0.021957114 -0.032560736
0003f0 60 63 f7 3d 58 7d 20 bd ac 25 9b bd 34 93 bf bd
       0.12079501 -0.039182037 -0.07575545 -0.09354249

fc2.bias f4 [64]
000000 f4 54 fd bd 80 5d 97 bd 46 7d a0 3d b0 42 42 bc
       -0.12369719 -0.073908806 0.07836394 -0.01185672
000010 b6 89 98 3d e0 ea 9f 3c 54 95 b7 3d 10 3c bb 3c
       0.07448141 0.019521177 0.08964029 0.022855788
000020 f0 a9 d7 3c f6 dc b1 3d e6 0b d1 3d 80 f7 f0 ba
       0.02632615 0.08684723 0.102073476 -0.0018384308
000030 d0 1d 54 bd 88 4c c1 bd 44 49 85 3d 36 8c d7 bd
       -0.051786244 -0.09438425 0.06508115 -0.1052479
000040 30 c8 83 3c 60 01 cf 3c 40 60 b1 3d 5c 32 cd bd
       0.016086668 0.02526921 0.08660936 -0.10019371
000050 c8 f9 83 3d 7e 69 cb 3d 30 da 1d bd 54 23 9e 3d
       0.06444126 0.099322304 -0.038538158 0.07721582
000060 6c 61 2b bd d4 a4 d4 3d 30 18 a8 3c 10 91 e6 3c
       -0.041840956 0.10383001 0.020519346 0.028145343
000070 08 4a 7d 3d b4 0f 8a bd 66 cd f9 bd 1a c3 b2 3d
       0.06183818 -0.067412764 -0.1219738 0.08728619
000080 72 cd d6 bd 04 bb a2 3d 04 60 3f bd cc e4 c5 3d
       -0.10488404 0.07945827 -0.046722427 0.0966278
000090 d8 37 60 3d 28 20 96 bd 40 f8 90 bd 34 57 d0 3d
       0.054740757 -0.07330352 -0.070786 0.10172883
0000a0 80 84 5c bc e4 a1 3d 3d a0 6c 25 bd 00 dc bd 3b
       -0.013459325 0.04629697 -0.040386796 0.0057940483
0000b0 74 b9 41 3d ec ef 11 bd 40 05 c2 bd 3c de 3e 3d
       0.047296003 -0.035629198 -0.094736576 0.046598658
0000c0 dc 32 67 3d e8 15 5b bd d0 ab 5a 3c 00 54 67 bc
       0.056444988 -0.05348769 0.013346627 -0.014119148
0000d0 00 e1 66 3b a0 61 a2 3c ce 51 85 3d 1e 3f dd 3d
       0.0035229325 0.019821942 0.06509744 0.10803054
0000e0 10 41 72 bd fc f9 06 3d e8 15 d6 bc e0 31 01 3c
       -0.05914408 0.032953247 -0.026133493 0.007885426
0000f0 38 b4 52 3d dc 79 13 bd e4 79 f5 bd c4 76 27 bd
       0.0514414 -0.036004886 -0.119861394 -0.040884748

fc3.weight f4 [2, 64]
000000 c0 20 a7 3c 80 31 ab 3d 70 8a a3 bc 5a 21 a0 3d
       0.020401359 0.08359051 -0.019963473 0.07818861
000010 86 53 ad 3d b8 e8 d7 bd 60 6c 26 bc 86 12 a9 3d
       0.084631965 -0.105424345 -0.010157675 0.08255486
000020 12 80 ad bd 62 ff e4 3d be b8 a1 bd d8 2e 07 bd
       -0.08471693 0.11181523 -0.07896565 -0.033003658
000030 d6 3b 87 3d 30 68 8a bc fc 24 3b bd c0 ee 67 3b
       0.0660321 -0.016895384 -0.045689568 0.0035390109
000040 2a be e8 bd b0 f7 fa bc 00 dc 70 3d b0 31 69 3c
       -0.11364396 -0.030635685 0.05880356 0.014233038
000050 50 7e c5 bc 96 af 9d 3d c4 1c 4f bd 00 2c 3f b9
       -0.024108082 0.07699506 -0.050564542 -0.0001823157
000060 74 6d 4f 3d 54 1d e7 bd 00 a5 70 3d 0c 12 72 3d
       0.050641492 -0.11284891 0.058751106 0.059099242
000070 d0 cd 53 3c e8 43 2a bd 64 be 81 3d 08 ab 06 bd
       0.0129274875 -0.041568667 0.06335142 -0.03287795
000080 1e 15 aa 3d 32 e5 e5 3d 38 62 a8 3c 88 48 b6 bd
       0.08304809 0.11225356 0.020554647 -0.08900553
000090 d0 9a d8 bc 20 9f 46 3d de 52 fd bd cc f4 8e bd
       -0.026441008 0.048491597 -0.12369321 -0.06980285
0000a0 24 46 cc bd be 3b 87 bd 1a c7 e6 bd 54 31 a2 3d
       -0.09974316 -0.06603192 -0.11268444 0.07919565
0000b0 f0 91 fc bd ee ea da bd 38 f3 b1 bc 10 80 85 3c
       -0.12332523 -0.106893405 -0.021722421 0.016296417
0000c0 90 37 79 bd ee 3d 84 3d 44 87 9a 3d 9c 5a 47 3d
       -0.060844004 0.06457125 0.07545331 0.048670396
0000d0 a0 df 9f 3d 80 4d 64 bc 58 f6 47 bd 08 5c fb 3d
       0.07806325 -0.013934493 -0.048818916 0.12273413
0000e0 04 ca 0d bd 70 0c a6 3c 30 9d fd 3d 40 b5 ea 3d
       -0.034616485 0.020269603 0.12383497 0.11460352
0000f0 f0 b0 30 3d 40 1f bc 3d 20 3e eb bd b8 92 ec 3d
       0.04313749 0.09185648 -0.11486459 0.11551422
000100 60 a8 aa bc 80 7f 9f bb 72 cf da bd c8 6c 5e 3d
       -0.02083224 -0.004867494 -0.10684098 0.05430296
000110 c8 ff 51 3d 28 58 74 bd 8a e2 93 bd f0 59 b3 3d
       0.051269323 -0.059654385 -0.07220943 0.087573886
000120 50 47 57 3d 24 2c 81 3d 98 00 24 3d e2 ff e6 bd
       0.052558243 0.06307247 0.04003963 -0.112792745
000130 f0 39 9d 3d 72 98 a3 3d 48 8b 3b 3d 70 8a ef 3c
       0.07677066 0.07988061 0.045787126 0.029240817
000140 a0 48 76 3c 00 58 6a b9 40 03 fb 3c ac 18 68 3d
       0.015031964 -0.00022348762 0.030641198 0.056664154
000150 74 ac 8d 3d 46 23 ea bd d8 29 6a bd 48 f0 9f bc
       0.069176584 -0.11432509 -0.05716881 -0.019523755
000160 b8 78 5f 3d 00 73 89 bc 8a ef c2 3d 74 b2 3a bd
       0.054558486 -0.01677847 0.09518345 -0.045580342
000170 80 ef bf bc 3a 05 89 bd c0 12 69 bb d0 13 c3 3c
       -0.023429632 -0.0669045 -0.0035564154 0.023813158
000180 74 26 de 3d 0a 94 f9 bd 50 d8 7c bc 8e f5 b4 3d
       0.10847178 -0.12186439 -0.015432432 0.08835898
000190 6c 9a b3 3d 22 61 ee 3d a0 8b cf bc c6 a2 e1 3d
       0.08769688 0.1163962 -0.025335133 0.11017375
0001a0 10 7f d2 bd c8 cc f5 3d be 9f c4 bd f4 12 dd 3d
       -0.102781415 0.120019495 -0.09600781 0.10794631
0001b0 40 e4 a4 3c 78 aa cb 3c 9c 36 00 bd dc 02 7b bd
       0.02012837 0.02486156 -0.03130208 -0.061282024
0001c0 f0 3a 95 3d f8 46 d4 bc 3c 75 09 bd a0 5d f0 3d
       0.07286632 -0.025912747 -0.03355907 0.117366076
0001d0 90 c4 e3 3c 78 72 be 3d c8 fa b8 bd d4 fd 9c 3d
       0.02780369 0.09299177 -0.09032208 0.076656014
0001e0 74 71 47 3d 52 2d 94 bd 88 8a b8 3d 76 2b ce bd
       0.04869218 -0.07235207 0.09010798 -0.10066883
0001f0 22 46 fe bd e0 4b 79 3d 4c 4d 3e bd 52 48 98 bd
       -0.124157205 0.060863376 -0.046460435 -0.07435669

fc3.bias f4 [2]
000000 2c 00 19 bd c8 02 f8 3c
       -0.03735368 0.030274764

fc_pi.weight f4 [64, 2]
000000 66 e1 62 be 00 70 aa 3a b0 9f 95 be a0 56 4b 3d
       -0.22156295 0.0013003349 -0.29223394 0.04964316
000010 9b ad 29 3f e8 4b 5e 3e 52 1f a8 3e 24 b5 12 be
       0.66280526 0.21708643 0.32836396 -0.14326912
000020 11 e9 20 3f 8d 69 03 3f 80 5e 37 bd 19 01 23 3f
       0.6285563 0.5133293 -0.044767857 0.6367355
000030 d8 6d 70 3e d0 5e 99 3d c9 8e 25 3f 2f 6c 2a bf
       0.23479402 0.07488787 0.64671 -0.66571325
000040 4d 46 30 bf 40 41 9b bc 8a 41 aa 3e 7a da 07 bf
       -0.6885727 -0.018952012 0.33253127 -0.53067744
000050 c9 59 26 3f 1d a5 00 3f fe 7d a9 be a0 7c 70 3e
       0.6498075 0.5025194 -0.33103937 0.2348504
000060 88 ba f4 bd 20 b6 ad bd 38 d8 c8 bd 4d a7 34 3f
       -0.119496405 -0.08482003 -0.098068655 0.7056778
000070 f5 1e ee be 52 19 c4 3e a5 51 0d 3f 51 6b 00 bf
       -0.46507993 0.38300568 0.55202705 -0.5016375
000080 f3 9d 2d 3f 46 d3 0e bf 8f 10 89 be dd 16 20 3f
       0.67819136 -0.5579113 -0.26770446 0.62534887
000090 f9 86 82 be 56 b5 ca 3e 3a da c2 be 40 b0 d3 bc
       -0.254936 0.39591473 -0.3805712 -0.025840878
0000a0 ae f1 fb 3e 9e 69 cb be 51 ab 09 bf 3a 08 15 bf
       0.49207824 -0.39729017 -0.53777033 -0.5821568
0000b0 d9 b6 31 3f 12 67 e8 3e f6 87 15 bf 45 e7 11 3f
       0.6941963 0.45391136 -0.58410585 0.56993514
0000c0 1a 49 97 3e 4b 80 2e bf 70 f0 d5 3d fa 8f 98 3e
       0.2954796 -0.6816451 0.104462504 0.29797345
0000d0 70 2e 9d 3d 84 00 65 3e 20 08 93 bd 04 8f 4f 3e
       0.07674873 0.22363478 -0.07179284 0.202694
0000e0 2a cc c0 3e 41 50 e8 be 10 45 37 3e 90 2d 08 3e
       0.37655765 -0.4537373 0.17897439 0.1329863
0000f0 5e e4 a5 be e0 09 33 bf e8 9c b1 bd 15 5c 11 3f
       -0.32400793 -0.69936943 -0.086725056 0.5678113
000100 84 36 a6 be c8 25 41 be 0d e5 b2 be 9f 5e 06 3f
       -0.32463467 -0.18862069 -0.34940377 0.5248813
000110 10 e2 77 3d 24 82 24 bf 08 15 ed be 50 01 08 3e
       0.060518324 -0.6426108 -0.46305108 0.1328175
000120 10 99 02 bd a0 f4 3c be 10 5a 02 3e ee f9 ca 3e
       -0.031884253 -0.18452692 0.12729669 0.39643806
000130 13 bb bf be c8 9b be be 00 b0 4e be ca 9a 92 3e
       -0.37447414 -0.37228227 -0.20184326 0.2863372
000140 6c 23 0b be 70 d6 98 bd dc ce 17 bf 4b 39 15 bf
       -0.13587731 -0.07462776 -0.5930002 -0.5829055
000150 89 ce e2 be c0 fe 82 3e e0 0d 01 bd 3d 74 0a 3f
       -0.442982 0.25584984 -0.031507373 0.54083616
000160 02 72 c9 3e ff 23 07 3f db 01 0b 3f f8 95 ed 3d
       0.39344794 0.527893 0.54299706 0.1160087
000170 5c 50 47 3e 20 61 c6 be 10 57 3c bd 40 b1 28 3c
       0.19464248 -0.38745975 -0.045981467 0.010296166
000180 9b 54 23 bf f8 98 58 be 91 ca 1d 3f 5a 42 33 bf
       -0.6380097 -0.21152103 0.61637217 -0.7002312
000190 55 3f 27 3f 5e f2 55 be 00 37 75 bd cc 12 eb be
       0.6533101 -0.20893237 -0.059866905 -0.45912778
0001a0 0a a6 f6 be e4 8f ef be 67 29 31 3f 11 c0 19 3f
       -0.48173553 -0.46789467 0.692038 0.60058695
0001b0 98 4b 1c 3e 9e ea bf be 87 bc 32 3f 44 df 0a be
       0.15263212 -0.37483686 0.6981892 -0.13561732
0001c0 dc 5c a7 be 7d 2e 22 3f 00 5f 8c 3b 3b 54 f9 be
       -0.32688034 0.63352185 0.004283786 -0.48697075
0001d0 5c e5 a8 be 02 66 cb 3e d8 41 b7 bd 62 6b b7 3e
       -0.32987487 0.39726263 -0.089481056 0.35824114
0001e0 80 a2 9f bc fa b2 27 bf f0 a5 d6 bd c6 35 f0 3e
       -0.019486666 -0.6550747 -0.10480869 0.46916026
0001f0 70 52 c9 be cb 3f 1e 3f 5a 06 ad 3e c5 1b 03 3f
       -0.39320707 0.6181609 0.33793908 0.5121425

fc_pi.bias f4 [64]
000000 71 41 1d 3f 62 b8 e8 3e 98 d2 ff bd 5c cf 3a be
       0.6142798 0.45453173 -0.124913394 -0.18243164
000010 b6 9f 0a bf d4 4a 5e be 38 89 02 3e 15 12 1f 3f
       -0.5414995 -0.21708232 0.12747657 0.62136966
000020 28 66 02 3e 1e 49 2c bf 00 69 66 3d d0 c2 12 3d
       0.12734282 -0.6729907 0.05625248 0.03583032
000030 f2 90 b4 3e 7d ac 2c 3f 98 30 49 be 48 52 14 bf
       0.35266834 0.67450696 -0.19647443 -0.5793805
000040 a7 f7 19 3f 2e 23 5b be 7f 2b 1f bf e0 ba b3 be
       0.6014351 -0.21400139 -0.62175745 -0.35103512
000050 78 6a 1a bf 3c a2 53 be c0 9f b6 3c 87 04 db be
       -0.6031871 -0.20667356 0.022292972 -0.42776892
000060 5c 85 d2 be dd 18 13 3f 00 92 19 3d c4 70 5a 3e
       -0.4111737 0.57459813 0.037492752 0.21332079
000070 c1 83 11 bf 78 f6 18 3e 50 7a c3 be f5 ef 2a 3f
       -0.56841666 0.1493777 -0.38179255 0.66772395
000080 b8 3d 01 3e e0 07 d1 3c 20 eb 91 3e ed 54 22 3f
       0.126212 0.02551645 0.284997 0.63410836
000090 5f 65 13 3f 2b 5a e9 be 0a dc ac 3e 8e a9 b9 3e
       0.57576555 -0.45576605 0.33761626 0.36262172
0000a0 aa 78 8a be 0a 38 a4 3e d9 3b 14 3f 04 79 8d 3e
       -0.27045184 0.32074004 0.5790382 0.2763139
0000b0 cc 3b 23 3e fc 62 5e 3e f7 8b b0 be 39 fb 05 3f
       0.1594078 0.21717447 -0.34481785 0.5233646
0000c0 a8 ee ce 3d e0 b0 93 3c 50 1c 01 be 09 56 c6 be
       0.10104114 0.018028677 -0.12608457 -0.38737515
0000d0 40 19 43 bd d7 ac 06 3f 74 68 06 be c0 2f 67 bc
       -0.047631502 0.5260748 -0.13125783 -0.014110506
0000e0 ef 86 81 be 2c b6 4a be 7a e4 b6 be 82 92 b7 3e
       -0.2529826 -0.19796056 -0.3572119 0.35853964
0000f0 d7 64 05 3f ca fb 9c 3e 56 69 b2 3e 1c 27 04 bf
       0.52106994 0.3066085 0.3484599 -0.51622176

pi_l.weight f4 [10, 64]
000000 ac ce bf bd 84 ed c6 3d 98 3f 5c 3d 3c b8 5d 3d
       -0.093655914 0.09713271 0.053771585 0.054130778
000010 00 74 fe ba 9c 6e 41 bd 5e 72 f0 bd 5c 84 7a 3d
       -0.0019413233 -0.047224626 -0.11740564 0.061161384
000020 ec 25 55 3d d4 41 ef bd c0 13 91 3c c0 ac 8a 3b
       0.05203812 -0.116824776 0.017709613 0.004232019
000030 4c a6 85 3d 34 bf 7b bd 9c 99 bd 3d 78 d5 6b bd
       0.06525859 -0.061461642 0.09257814 -0.057576627
000040 fc 26 4f bd 38 a3 57 3d d6 a6 e3 bd 10 4d fd 3c
       -0.050574288 0.052645892 -0.11115806 0.030920535
000050 90 6b 60 3d aa 3a df 3d e8 b8 33 bd 10 15 c4 bd
       0.05479008 0.10899861 -0.043877512 -0.0957433
000060 9c 93 12 3d 36 ac e0 3d c0 bf 2e bb c8 ee 3f 3d
       0.035785303 0.10970347 -0.0026664585 0.04685858
000070 10 32 00 3d 24 64 a8 bd 58 4e 8b bd 4e d9 f6 bd
       0.031297743 -0.08222225 -0.06802052 -0.12053166
000080 78 e3 3b 3d d0 ca fd 3d 50 2a c1 3d a8 fc da 3d
       0.045871228 0.12392199 0.094318986 0.106927216
000090 a8 38 95 3d 80 42 ed 3a 36 ce cc 3d 88 86 b0 bd
       0.07286197 0.0018101484 0.10000269 -0.0861941
0000a0 90 1e a3 3d b8 97 47 bd 48 2d 17 bd 9c e4 21 3d
       0.07964814 -0.048728675 -0.036908418 0.03952466
0000b0 58 cb 54 3d a8 c3 fb 3c 96 0b f5 bd ec 52 d1 bd
       0.051951736 0.030732945 -0.119651005 -0.10220894
0000c0 14 b9 68 3d 18 72 e4 3c 86 94 ff 3d 02 fe 83 bd
       0.05681713 0.027886435 0.124795005 -0.064449325
0000d0 4e 88 93 bd 16 48 95 3d 00 8c d7 3a 4c 55 11 3d
       -0.072037324 0.0728914 0.0016444921 0.035481736
0000e0 b0 a0 14 3d b2 18 92 bd 40 5e 31 bb 38 1c 68 3d
       0.036286056 -0.071336165 -0.0027064234 0.056667536
0000f0 04 7d 56 bd 54 ca 16 3d 66 13 93 bd c0 b4 54 bc
       -0.052365318 0.03681405 -0.07181434 -0.012982547
000100 36 a9 94 bd a8 a0 3b 3d d6 d7 e6 3d d0 01 06 3c
       -0.07258837 0.04580751 0.11271636 0.008179143
000110 3e 7b 84 bd 8a 09 83 bd 30 a5 8a bd d6 e6 e7 bd
       -0.06468819 -0.06398304 -0.06769788 -0.11323325
000120 f0 e8 98 bd 6e b2 8a 3d 36 15 c7 bd f2 92 86 bd
       -0.07466304 0.06772314 -0.097208425 -0.06570996
000130 78 5f 88 bc 64 01 f0 bd d8 18 af 3c a0 cc f9 bd
       -0.016647086 -0.11719015 0.021374151 -0.12197232
000140 50 e2 14 bd 52 08 8b bd c4 2c c6 3d 00 e9 c0 3c
       -0.03634864 -0.06788696 0.09676507 0.023548603
000150 dc c6 10 3d 90 02 ed bd 70 fb d9 3d 44 df c6 bd
       0.035345897 -0.115727544 0.10643661 -0.09710553
000160 f8 9b 82 3c f0 d0 4a bd de 7a 95 3d ae 9a ef bd
       0.015943512 -0.049515665 0.07298826 -0.11699425
000170 40 60 9a 3b 30 9f ce bc ee 94 fa 3d 8e d1 cc bd
       0.004711181 -0.02522239 0.12235437 -0.10000907
000180 94 c8 5c 3d 08 29 b6 3d 98 32 f5 3d 88 33 c5 3d
       0.053902224 0.08894545 0.119725406 0.096289694
000190 7c 04 af 3d 48 f2 6f 3d aa 77 e5 bd 80 5b ae 3d
       0.08545777 0.058580667 -0.11204465 0.08513546
0001a0 22 60 fb 3d d0 c5 c6 bc e8 75 85 bc 8c bd 46 bd
       0.12274195 -0.024264246 -0.016291574 -0.04852061
0001b0 40 e6 7f 3b 04 d7 92 bd 34 51 cd bd 4a ce db bd
       0.0039047152 -0.07169917 -0.10025254 -0.10732706
0001c0 6c 1a 78 bd d4 e4 2a 3d 7e 61 d8 3d 2c f1 2e bd
       -0.060572073 0.041722134 0.1056547 -0.04271047
0001d0 f4 33 48 bd 1c 16 02 bd 24 e8 b0 3d 88 65 fe bc
       -0.04887767 -0.031759366 0.08638027 -0.031054273
0001e0 a4 83 d8 bd 58 55 c0 bc 88 7d bb 3d 60 db 27 3d
       -0.105719835 -0.023478195 0.091548026 0.040980697
0001f0 2e 69 f8 bd 76 99 a8 bd 72 e7 b3 3d 02 d7 d5 3d
       -0.121294364 -0.08232395 0.08784379 0.104414
000200 86 79 e9 3d c8 d9 75 3d 0e 5f a2 bd b2 5b 97 bd
       0.11400132 0.060022146 -0.079282865 -0.07390536
000210 3e 71 d5 bd 58 ba bb 3d 5c 7b 68 bd 70 9a 65 3d
       -0.1042199 0.091664016 -0.05675827 0.056055486
000220 28 55 88 bc 2c f2 27 bd 80 d3 d8 bc 30 e3 49 3d
       -0.016642168 -0.041002437 -0.026468039 0.04928893
000230 d4 dc fe bd 10 65 95 3d 9c e3 f9 3d a0 a3 d7 bb
       -0.12444463 0.07294667 0.12201616 -0.006580785
000240 94 2d 3b 3d a4 41 73 3d b8 69 b7 3c 00 4e e0 bc
       0.045697764 0.05938877 0.022389278 -0.027380943
000250 44 b3 da bd e0 66 05 3c 98 e2 b8 3c f6 6e ef bd
       -0.106787235 0.008142203 0.022568986 -0.11691086
000260 40 61 9c bb 28 ed ae bc 40 87 2e bb e0 ed a0 3c
       -0.0047723353 -0.02135332 -0.0026630908 0.019644678
000270 4c 5f 5a bd 2a 12 a1 3d 54 7c e7 3d 38 eb 2c bd
       -0.05331354 0.07864793 0.113030106 -0.04221651
000280 14 87 de 3d 74 f3 83 3d 8c 0c 2c bd d4 65 bf 3d
       0.10865608 0.064429194 -0.042004153 0.09345594
000290 80 2e e2 3b c6 64 ad bd 9c 83 ed 3d 80 19 31 bd
       0.006902516 -0.08466487 0.11597368 -0.04323721
0002a0 64 d6 ce bd 50 82 ea bc 2a 00 90 bd a0 ab 73 bc
       -0.100994855 -0.028626591 -0.07031281 -0.014872462
0002b0 d6 00 cc 3d ac 4e 8d bd f4 d9 24 3d 58 0b 17 bd
       0.09961097 -0.06899771 0.04024692 -0.036876053
0002c0 4a 0a ca 3d 72 7e db 3d 1c 08 75 3d f4 de 2f bd
       0.09865244 0.10717477 0.059822187 -0.042937234
0002d0 98 ea 80 3c 80 b1 c9 bd 30 8a 12 3d 50 3a e9 3c
       0.015736863 -0.098483086 0.035776317 0.028470188
0002e0 b8 e1 b7 3d 9c 8d 85 3d a0 b4 f8 3d 3a 0a c1 3d
       0.08978599 0.065211505 0.121438265 0.09425779
0002f0 40 8b b4 3d 00 dd 91 bb cc 28 70 bd 4e eb fa 3d
       0.08815622 -0.004451394 -0.058632657 0.12251912
000300 94 c8 68 3d 1a b2 9b 3d b0 89 d2 bc 00 89 70 3c
       0.05683191 0.076023296 -0.02570042 0.014681101
000310 58 95 96 bd 08 0f d3 bd 8c 31 7a bd 18 79 52 bd
       -0.07352704 -0.10305601 -0.061082408 -0.051385015
000320 9e 48 a1 bd 74 70 04 3d 80 af be bc e0 11 21 3c
       -0.07875179 0.032333806 -0.023277044 0.009830922
000330 90 76 24 bd d0 9a 3f bc b0 53 3b bd 14 13 56 bd
       -0.040152133 -0.011694625 -0.045734107 -0.052264288
000340 88 65 8e 3c b0 5f 12 bd c0 49 cb bc a4 7f d5 3d
       0.017382398 -0.035735786 -0.02481544 0.10424736
000350 92 31 db 3d 52 78 c2 bd 14 0b 36 bd b8 d9 b1 3d
       0.10702814 -0.094956055 -0.04444416 0.08684105
000360 24 28 e6 bd 60 ba 5c bd 18 d2 73 bd fe 9f 95 3d
       -0.11238125 -0.05388868 -0.059526533 0.07305907
000370 3c 98 ad 3d 74 23 2c 3d 24 ef 8b bd 6a 44 e4 3d
       0.08476302 0.042026 -0.06832722 0.111458614
000380 88 01 5a bd 80 80 c8 3b 08 4d d4 bc 20 8e 15 3d
       -0.053224117 0.006118834 -0.025915638 0.036512494
000390 0a 2a a9 bd 4c 71 9b 3d 2e d0 87 3d cc 9e b3 bd
       -0.082599714 0.07589969 0.06631504 -0.087705225
0003a0 20 b0 d4 3d d2 72 d6 3d e0 1a 8d bc 70 02 6c 3c
       0.10385156 0.10471119 -0.017224729 0.014404878
0003b0 70 2f 24 bd d0 f1 60 bc 30 0a e8 3c 90 9b ad bc
       -0.040084302 -0.013729528 0.02832517 -0.021192342
0003c0 26 65 ee 3d 58 89 c7 3c 3e d4 8e bd 4e c8 9d bd
       0.11640386 0.024357483 -0.06974076 -0.07704221
0003d0 30 ab 70 3c 0a 37 b1 3d 90 48 29 bc d0 16 38 bc
       0.014689252 0.08653076 -0.010332242 -0.011235908
0003e0 62 6d 87 bd f0 13 12 3c 1c d3 59 bd fe 7f cc bd
       -0.0661266 0.008915886 -0.053179845 -0.0998535
0003f0 e0 ea bc bb 60 4f 95 bc 98 eb bd bd 3e a7 82 bd
       -0.005765304 -0.018226326 -0.092734516 -0.06379555

pi_l.bias f4 [10]
000000 54 fa 71 bd 82 60 97 bd be 4d c6 3d 00 ee 02 bc
       -0.059076622 -0.07391454 0.09682797 -0.007991314
000010 b0 93 3c 3c f0 33 2f 3c ec 93 5c bd f8 7e 3f 3d
       0.011509821 0.010693535 -0.053852007 0.046751946
000020 70 68 5f 3d 30 9f 04 3c
       0.05454296 0.008094594

fc_cont.weight f4 [64, 2]
000000 55 94 2d 3f 5b 7f d5 be 76 7a d5 be c2 24 07 bf
       0.6780446 -0.41698727 -0.41694993 -0.5279046
000010 65 b7 25 bf 0b f6 c1 be fb a4 d8 be 78 27 3d be
       -0.6473296 -0.37883028 -0.4231337 -0.18472087
000020 8c b4 58 be e8 e5 b3 be 7a dc 16 bf fc 1b 04 bf
       -0.21162623 -0.35136342 -0.5893017 -0.516052
000030 99 ad 1d bf fe 9b 34 bf 87 78 30 bf 4d f1 15 bf
       -0.61593014 -0.70550525 -0.6893391 -0.5857132
000040 f6 de a9 3e 8c 68 3b be 18 d4 25 bf ab df e3 be
       0.33177918 -0.183016 -0.64776754 -0.44506583
000050 56 c5 dc 3e 6c 07 10 be f7 e9 18 3f eb 2c 11 3f
       0.43119305 -0.14065331 0.59732 0.56709164
000060 72 a9 aa 3e c8 65 a8 3d 98 ae d0 bd 54 56 3d 3e
       0.33332402 0.08222538 -0.10189551 0.18489963
000070 06 3c be 3e f4 b6 b9 be e9 8b 01 3f 35 95 2e bf
       0.3715517 -0.36272395 0.5060411 -0.6819642
000080 dd ad 18 bf 66 4f ee 3e ae 56 bd 3e 44 ca 0a bf
       -0.59640294 0.4654495 0.36980194 -0.5421488
000090 3c e5 f4 be 23 66 d4 be 49 75 0d 3f a0 06 0d bf
       -0.47831142 -0.41484174 0.5525709 -0.55088234
0000a0 bd 6f 29 3f aa c1 d1 3e 00 2c af 3b 3c 5c 57 3e
       0.66186124 0.40968066 0.0053458214 0.21031278
0000b0 63 f6 28 3f 58 5d fa bd 7a c1 e7 3e 8a f4 c4 3e
       0.66000956 -0.12224835 0.45264798 0.38467818
0000c0 98 da 06 bf f4 f2 ef be 40 fd 78 3d aa fe 7e be
       -0.526773 -0.46865046 0.060788393 -0.24901834
0000d0 00 c8 ab bd e2 bc 9c be 3d 52 1c bf 73 16 f0 be
       -0.08387756 -0.30612856 -0.61062986 -0.46892127
0000e0 40 10 9c bd a8 71 6f 3e 71 04 34 bf 7c 40 22 be
       -0.07620287 0.233832 -0.7031928 -0.15844911
0000f0 44 e9 49 3e 28 d0 01 bf c2 c8 7b be 13 86 28 3f
       0.1971789 -0.50708246 -0.24588302 0.6582958
000100 9f 3d 1f 3f 20 38 41 bd 76 21 0e bf 69 94 a7 be
       0.622034 -0.047172666 -0.5551981 -0.32730415
000110 c8 fe 9e bd 60 1a 72 3d 43 03 15 bf 06 db 70 be
       -0.077634394 0.059107184 -0.582081 -0.23521051
000120 36 bd fb 3e e8 07 f4 3d 5b 72 26 3f d6 b3 de 3e
       0.49167794 0.119155705 0.6501824 0.4349658
000130 a4 b2 2e 3e 89 52 19 3f d5 24 28 3f 5b 5c 12 bf
       0.17060333 0.59891564 0.656812 -0.57172173
000140 30 77 fb bd 20 d5 98 be 10 4d 95 3e f0 88 ff bd
       -0.122785926 -0.298501 0.29160357 -0.12477291
000150 db 7d 17 3f 98 93 b5 bd 02 57 8d 3e 90 67 15 3d
       0.59176415 -0.08866042 0.27605444 0.036475718
000160 68 38 e5 bd 18 70 d0 bd 48 a6 d3 3d dc a8 9b be
       -0.11192399 -0.1017763 0.1033445 -0.30402267
000170 62 ce bc 3e 89 9e 24 3f 02 fe aa 3e f0 6e 44 bd
       0.36876208 0.64304405 0.33396918 -0.04795736
000180 d7 f4 d6 be a6 c0 cf 3e b6 46 83 3e 80 57 ab 3d
       -0.41983673 0.40576667 0.25639886 0.08366299
000190 80 69 cf bd e0 53 aa 3d e0 6e 81 3c c8 b8 0d bf
       -0.101275444 0.08316779 0.01579994 -0.5536008
0001a0 c8 2c d5 bd 14 cd 2e be 11 5c 2e bf 21 a1 c4 be
       -0.10408932 -0.17070419 -0.6810923 -0.38404182
0001b0 26 35 bc 3e 34 a4 23 be 00 fc 41 bd 2f 13 82 be
       0.367593 -0.15980607 -0.047359467 -0.2540526
0001c0 fa 3c b6 3e 1a d4 f3 3e ac f2 f4 be fe f5 9f 3e
       0.35593396 0.47622758 -0.47841394 0.31242365
0001d0 49 ef 83 be 40 e0 74 3c 37 ff 1f bf 8a 78 a4 3e
       -0.25768498 0.0149460435 -0.624988 0.32123214
0001e0 d0 54 40 3d ac 3b 40 3e d0 eb 98 bd c5 fb 33 bf
       0.046955884 0.18772763 -0.07466853 -0.70306045
0001f0 de 5b fe 3e 84 df 7c 3e 90 e4 14 3d 58 cc a4 bd
       0.49679464 0.2469464 0.036350787 -0.08046788

fc_cont.bias f4 [64]
000000 95 e5 1e bf cf 97 22 3f 5e 69 c9 3e b4 30 e7 be
       -0.62069064 0.6351289 0.393382 -0.45154345
000010 2a 62 f6 3e 54 d1 fc be 33 a9 09 3f 60 06 c2 3d
       0.48121768 -0.49378455 0.537738 0.09473872
000020 18 7f 65 3e e4 8b f9 be 62 98 bf be 0c a4 f2 be
       0.22411764 -0.4873954 -0.37420946 -0.47390783
000030 fc 7c 0d bf e8 e5 ef bd 59 b2 e5 be 4e 00 b4 be
       -0.55268836 -0.11713773 -0.4486263 -0.35156482
000040 bc 5d 23 3e ba 5d da 3e 18 29 c7 bd 5e 68 1d bf
       0.15953726 0.42649633 -0.09724635 -0.61487377
000050 81 39 33 3f c8 b8 ab bd fc a1 1d 3e d0 57 1d 3e
       0.7000962 -0.083848536 0.15393823 0.15365529
000060 ae e9 19 bf de 0f df be 20 81 26 bd 88 92 34 be
       -0.6012219 -0.43566793 -0.040650487 -0.17634022
000070 86 73 e7 3e fe 63 1d bf 67 56 2f bf 0a c8 f0 3e
       0.45205325 -0.614807 -0.68491215 0.47027618
000080 a4 f5 3c 3e 38 9d c9 3d 47 91 8d be d2 d1 d6 3e
       0.1845308 0.0984444 -0.276499 0.41956955
000090 cd 78 0f bf e7 18 19 bf 55 3f d6 be d1 b6 b6 be
       -0.560437 -0.5980362 -0.41845194 -0.35686353
0000a0 6d d1 24 3f 11 31 2c 3f 2c c7 3f 3e f4 e2 2f be
       0.6438206 0.6726237 0.18728322 -0.1717642
0000b0 11 2e cd be 26 23 27 bf 9f 37 32 3f f8 a2 a6 be
       -0.40074208 -0.6528801 0.6961612 -0.3254621
0000c0 d0 e4 1f 3d b4 52 1d 3e 25 c7 23 3f f2 ca ea 3e
       0.039036572 0.1536358 0.63975745 0.4585796
0000d0 25 05 13 bf 46 e2 cb 3e fc 44 19 3e 2c 7f b4 be
       -0.57429725 0.3982107 0.14967722 -0.35253274
0000e0 70 d8 b6 3d fc b8 23 3e 16 e9 04 bf fc de 1a bf
       0.08928001 0.15988535 -0.5191816 -0.604965
0000f0 16 84 ce 3e 1e 5c aa 3e 00 f4 e4 bb 37 7b 13 3f
       0.4033515 0.33273405 -0.006987095 0.57609886

alpha.weight f4 [19, 64]
000000 c2 aa fb bd 14 fa ed 3d 88 61 41 3d aa a7 fb 3d
       -0.12288429 0.11619964 0.047212154 0.12287839
000010 70 05 93 3c 60 35 fb bb 7c 76 3a bd 48 56 6e bd
       0.017946929 -0.007666275 -0.04552315 -0.058187753
000020 8c 34 3b 3d 70 4d 97 3d 38 68 f8 bc 3c a7 b8 bd
       0.04570441 0.07387817 -0.030323133 -0.090162724
000030 60 dd 48 bc 24 d8 fe bd 40 41 d3 3b 54 6e 01 bd
       -0.012259811 -0.12443569 0.0064469874 -0.031599358
000040 90 3b 1b 3d ea 38 ca bd 6e 55 e9 3d 74 86 28 3d
       0.0378986 -0.09874137 0.113932475 0.04114385
000050 04 aa 60 bd c8 e7 ff bd 80 01 ad bc f4 79 9d bd
       -0.05484964 -0.12495381 -0.02111888 -0.07689276
000060 e4 b7 0f 3d 7c 52 48 3d 7c 34 f8 bd 9c 7f f8 bd
       0.03508748 0.04890679 -0.121193856 -0.121337146
000070 e8 b5 f5 3c 18 6d df bd 90 6f 14 bc aa 6c fc bd
       0.029993966 -0.1090948 -0.009059802 -0.123254135
000080 00 53 b1 bb b4 ed 77 bd 50 4d 05 bc 9c bc e5 3d
       -0.0054115057 -0.060529426 -0.0081361085 0.11217615
000090 04 b9 da 3d 9a df b2 3d 70 29 bc 3d e2 b5 f8 3d
       0.1067982 0.08734055 0.09187591 0.121440664
0000a0 ea 13 e2 3d 78 00 19 bd 44 fa 9e bd d0 d8 54 bc
       0.110389546 -0.037353963 -0.07762578 -0.012991145
0000b0 50 c9 9c 3c 04 ff cd bd 16 3f 8c bd 00 72 4d 3a
       0.019138962 -0.10058406 -0.0684797 0.0007837117
0000c0 fc 28 cb 3d 54 5a 0b bd f6 0c ae 3d 84 0b d3 bd
       0.099199265 -0.03402169 0.08498566 -0.10304931
0000d0 ea 34 8b 3d 68 e5 80 bd 66 e0 90 bd 38 31 93 3c
       0.06797202 -0.06293756 -0.070740506 0.017967805
0000e0 8a b0 c0 3d d4 65 af bd 34 1b 74 3d 0c a9 14 3d
       0.09408672 -0.08564344 0.059596255 0.03629403
0000f0 38 51 fd 3c 1c b2 08 3d 4e 62 ff 3d b4 11 c0 3d
       0.030922517 0.033372983 0.12469922 0.093783766
000100 6c 41 fd bd 00 e6 a1 39 2c d6 56 bd 10 72 33 3d
       -0.12365994 0.00030879676 -0.052450344 0.04380995
000110 5c d3 1f bd 80 89 3b bd 00 10 de 39 6c 96 cc 3d
       -0.039019927 -0.045785427 0.0004235506 0.09989628
000120 28 18 49 3d 68 a3 ce 3d 8e 80 fd bd 72 6d d3 bd
       0.049095303 0.10089761 -0.123780355 -0.103236094
000130 18 54 e9 3c 30 6c ee bd e8 7a a7 bd a0 66 dd bd
       0.028482482 -0.11641729 -0.081777394 -0.1081059
000140 02 9f da 3d 08 3d c4 bc f0 f3 c3 3d 60 33 e9 3c
       0.106748596 -0.023954883 0.09568012 0.02846688
000150 e0 7e a0 bc 68 3f a5 bc 40 24 dc 3c 14 e0 92 3d
       -0.019591749 -0.020171836 0.026872754 0.07171646
000160 64 18 5b 3d 8c 40 e3 bd 04 e6 75 bd 16 08 fe bd
       0.053490058 -0.11096296 -0.060033813 -0.12403886
000170 3e 35 95 3d e2 c7 b7 bd ae eb 82 3d 7c b2 f7 3d
       0.07285546 -0.089736715 0.063926086 0.1209459
000180 30 1c 11 bc 08 36 13 bd ea 34 93 3d a0 bf 87 bd
       -0.008856818 -0.0359402 0.07187827 -0.066283464
000190 be 30 a1 bd 94 51 8d bd 1a 84 8e bd 80 98 d4 ba
       -0.07870625 -0.069003254 -0.0695879 -0.0016219765
0001a0 8c f8 35 bd 02 4e fd bd 42 14 f3 3d e8 76 cd bc
       -0.044426486 -0.123683944 0.11869098 -0.025081113
0001b0 b4 a2 b3 3d 40 c5 5b 3c dc 6b 9e bd 68 bc 32 3d
       0.087712675 0.013413727 -0.07735416 0.04363671
0001c0 68 da 6b bd a6 ff a0 3d 40 6e a0 bc 60 4f f7 bc
       -0.057581335 0.07861261 -0.019583821 -0.030189216
0001d0 f8 14 e8 3c 6a 98 c7 3d 70 eb 32 bc 38 ec 40 3d
       0.028330311 0.097458676 -0.0109203905 0.047100276
0001e0 80 33 36 bc 74 16 e2 3d 80 89 34 3b f2 02 f2 3d
       -0.011120677 0.11039439 0.0027547777 0.11816968
0001f0 f4 2a 09 3d ca 33 8b bd 14 91 7e bd 20 7c a4 bb
       0.03348823 -0.06796987 -0.062150076 -0.0050196797
000200 98 34 06 3d 00 07 a8 bd 50 9e bd 3c 0c 12 f2 bd
       0.032765 -0.0820446 0.023146778 -0.118198484
000210 48 00 dc 3c 42 99 fa 3d 94 5b 80 3d 64 9e 83 3d
       0.026855603 0.12236263 0.06267467 0.06426695
000220 90 65 7c bd f0 34 f3 3d 68 4b 72 3d 60 aa c4 bd
       -0.061620295 0.118753314 0.059153944 -0.09602809
000230 52 ed fb 3d 98 82 8c bc f8 39 cb 3c 20 ee a5 3d
       0.12301125 -0.017152116 0.024807915 0.08102059
000240 3c 78 0d bd 48 01 d4 bd 38 cb e0 3d 6a fa ae 3d
       -0.034538493 -0.10351807 0.10976261 0.085438564
000250 00 b0 53 3b c0 09 ab bb d0 45 21 3d 32 91 af 3d
       0.003230095 -0.005219668 0.03937322 0.08572616
000260 6e 34 e6 bd 16 fc b0 bd 9e b6 be bd 5a 3d c5 bd
       -0.11240469 -0.086418316 -0.09312175 -0.096308425
000270 4c 1a 78 3d 12 c5 d3 3d c4 c4 e6 3d ee 98 d1 3d
       0.060571954 0.103403226 0.11267999 0.10234247
000280 d4 44 64 bd d4 db 79 3d 3c e8 ba bd a0 4b 59 3c
       -0.055729702 0.06100066 -0.091263264 0.013262659
000290 78 a3 a3 3c 10 45 51 3c d8 73 0c 3d 84 d9 76 3d
       0.019975409 0.012772813 0.034290165 0.060266033
0002a0 e0 4c 48 3d d8 3d d4 bc f0 80 75 3c c0 23 72 bd
       0.04890144 -0.025908396 0.014984354 -0.059116125
0002b0 60 52 c8 bb d4 50 31 3d f4 41 d9 3d 20 e2 b5 3d
       -0.0061133355 0.043289974 0.10608283 0.088810205
0002c0 98 07 b0 3d 68 ef b2 bc 94 48 44 3d a2 28 e9 3d
       0.085951984 -0.021842673 0.04792078 0.11384703
0002d0 2e 30 df 3d 80 b7 35 3d fa 67 c9 bd d8 b6 3e bd
       0.108978614 0.044364452 -0.09834285 -0.046561092
0002e0 2e 4c c1 3d 06 c2 99 bd 5e c8 ba 3d 00 34 0a ba
       0.09438358 -0.0750771 0.09120248 -0.0005272031
0002f0 0c 5b f1 bd f8 49 fe 3c 44 6b f3 bd 44 a7 4f bd
       -0.11784944 0.03104113 -0.11885694 -0.050696626
000300 a0 88 23 bd ae a1 94 bd 48 f0 d9 3c d8 b7 1f bd
       -0.039925218 -0.072574005 0.026603833 -0.038993686
000310 a2 85 ac 3d 28 6f 82 3d be 6f 98 bd 40 b6 3d 3b
       0.08423926 0.063688576 -0.07443188 0.002894774
000320 d2 09 f0 bd 80 c0 2a 3d e0 f8 eb bc bc 9b a0 bd
       -0.11720623 0.04168749 -0.028805196 -0.07842204
000330 a0 d8 c8 bc b0 a9 c3 bd 18 de d2 3c 78 57 c5 bd
       -0.024517357 -0.0955385 0.025740668 -0.09635824
000340 28 ac 1e 3d be 94 df bd 80 31 da 3d 16 ca e1 3d
       0.0387384 -0.10917042 0.106539726 0.11024873
000350 b0 f8 ac bd 20 b1 ef bd 1c 0b 50 bd ce 95 82 bd
       -0.08445871 -0.11703706 -0.050791845 -0.06376229
000360 de d3 dd 3d 4c 58 21 3d 00 22 a3 bc 28 ca e6 3d
       0.10831426 0.039390847 -0.019913673 0.11269027
000370 12 7a c5 3d 14 d5 3a bd 18 3f 7b bd fe fc e0 bd
       0.09642424 -0.045613363 -0.061339468 -0.109857544
000380 20 75 91 bd 12 0d c3 bd 6a 23 b7 bd 10 ac c3 3c
       -0.07102418 -0.09523977 -0.089423016 0.023885757
000390 28 7f 5c 3d 28 d7 a7 3c 20 1d 7f 3c 80 e3 81 ba
       0.053832203 0.020488337 0.015570909 -0.0009909719
0003a0 90 72 11 bc 8e 07 d1 3d 90 40 f9 bd a8 fb 63 bd
       -0.0088774115 0.10206519 -0.121705174 -0.05565992
0003b0 0a 93 db bd a4 44 2d bd 70 d5 fe bd 82 2d fb bd
       -0.10721405 -0.04230179 -0.12443054 -0.12264539
0003c0 54 67 19 bd 3c 17 b4 3d 08 ed d7 bd 50 04 5c 3d
       -0.037452057 0.08793494 -0.10543257 0.05371505
0003d0 aa 3e eb 3d 60 ef 36 3d 60 0b d9 3c de f5 a9 bd
       0.114865616 0.04466188 0.026494682 -0.082988486
0003e0 08 c1 92 3d 62 2c 81 bd d0 2c 8d bc e8 07 8b 3d
       0.07165724 -0.063072935 -0.017233282 0.06788617
0003f0 3c 5a 06 3d 24 36 09 bd ac 51 40 bd e0 77 8c bc
       0.032800898 -0.0334989 -0.04695289 -0.017147005

alpha.bias f4 [19]
000000 44 9c 31 bd 54 80 b9 bd 5c ae 84 3d b2 ae 98 bd
       -0.043361917 -0.0905768 0.06478569 -0.074551955
000010 8c 9e 4c 3d f4 2a 8d bd 24 1c 7b bd 04 d5 f4 3d
       0.04995589 -0.06892958 -0.061306134 0.11954692
000020 6c 88 50 bd 20 a4 f6 3c 00 e2 f4 3a f8 b5 5f bd
       -0.050911352 0.030107558 0.0018683076 -0.0546169
000030 b8 df 85 3d 6e 26 9f 3d f0 30 47 3c 00 a4 21 3b
       0.065368116 0.07771002 0.012157664 0.0024664402
000040 30 b4 da bd 48 76 4b 3d 4a a7 ae bd
       -0.10678899 0.04967335 -0.085280016
