Case study 2/Hybrid/best_model/ppo_critic.pth (torch, 21689 bytes, 5 tensors)

fc1.weight f4 [64, 6]
0	0x3ec11e32	0.3771835
1	0x3dae8334	0.08521119
2	0xbe2018a6	-0.15634403
3	0x3e8de13c	0.27710903
4	0xbe92ed3b	-0.28696617
5	0x3e90141e	0.28140348
6	0x3ed0bbec	0.40768373
7	0xbb186a00	-0.002325654
8	0xbeabd990	-0.33564425
9	0xbd297f58	-0.04138121
10	0x3e5b9228	0.21442473
11	0x3e9cd274	0.30629313
12	0xbebe2b70	-0.37142515
13	0x3dd7ed80	0.105433464
14	0xbe3d12f4	-0.18464261
15	0xbe3020ce	-0.17200014
16	0xbe909f86	-0.28246707
17	0xbebcdb92	-0.3688627
18	0x3ece3464	0.40274346
19	0xbc7baf00	-0.0153615475
20	0xbe4df86f	-0.20114301
21	0xbe9a5860	-0.3014555
22	0xbec1d574	-0.37858164
23	0xbeaea1b9	-0.3410776
24	0xbeb6ee03	-0.35728464
25	0xbeb24006	-0.3481447
26	0xbe017946	-0.12643918
27	0xbe1579c4	-0.14597231
28	0x3e4d5108	0.20050442
29	0xbbd23180	-0.0064145923
30	0x3cc47810	0.023983032
31	0x3ea70edc	0.32628524
32	0xbe2a882c	-0.16653508
33	0x3e351650	0.17684293
34	0xbe6cc05a	-0.23120251
35	0xbe1520f6	-0.14563355
36	0x3bc16f00	0.005903125
37	0xbdaa6c10	-0.083213925
38	0x3e34a1a4	0.17639786
39	0xbea2994f	-0.3175759
40	0x3ea37f02	0.31932837
41	0xbdb7bc88	-0.08971506
42	0x3e930a82	0.28718954
43	0x3e88a66e	0.26689476
44	0x3e9b5562	0.3033858
45	0xbea47e73	-0.32127723
46	0xbdec2ee0	-0.11532378
47	0xbecb6857	-0.39728042
48	0xbc2eb7e0	-0.010663956
49	0x3d9e0548	0.07715851
50	0xbe5222d7	-0.20521103
51	0x3e775dd8	0.24156892
52	0x3ec8dd9a	0.3923157
53	0x3e308b7c	0.17240709
54	0xbcdcc4e0	-0.026949346
55	0x3d507e20	0.050901532
56	0x3db38be4	0.087669164
57	0x3eab0768	0.33404088
58	0xbe7323dc	-0.23744148
59	0xbe3db929	-0.18527664
60	0x3e720674	0.23635274
61	0x3d088c90	0.033337176
62	0x3d713dd0	0.05889684
63	0xbe8f598e	-0.27998012
64	0x3c056380	0.008141398
65	0x3e4813cc	0.19538802
66	0xbe8cfd2e	-0.2753691
67	0xbe53ff5e	-0.20702884
68	0xbe20a29c	-0.1568703
69	0xbcd45610	-0.025919944
70	0xbecf51cc	-0.40492094
71	0x3d32cc80	0.043652058
72	0xbe1ad6c2	-0.15120986
73	0xbece2bde	-0.40267843
74	0x3e65727c	0.22406954
75	0x3ea1a552	0.31571442
76	0xbeaa4cff	-0.33261868
77	0x3e2c82f0	0.16846824
78	0xbdc288d4	-0.09498754
79	0x3ebddf0e	0.3708424
80	0xbe12ffc4	-0.1435538
81	0xbe3603d7	-0.17774902
82	0xbc539e00	-0.012916088
83	0x3e852760	0.26006603
84	0xbdedc9c8	-0.11610752
85	0xbe8d1414	-0.2755438
86	0xbcbae0b0	-0.022812217
87	0x3e8f1cde	0.2795171
88	0xbeb67641	-0.35637096
89	0x3d7afcb8	0.061276168
90	0x3dce9fd0	0.100890756
91	0xbe82ed4c	-0.25571668
92	0xbe31a7e8	-0.17349207
93	0xbebecccb	-0.3726562
94	0x3d6de538	0.05807993
95	0xbda9e01c	-0.082946986
96	0xbe140b42	-0.1445742
97	0xbe405dae	-0.18785736
98	0xbe69fcc8	-0.22850335
99	0x3de85738	0.11344761
100	0xbe242eae	-0.16033432
101	0x3e7486c8	0.2387954
102	0x3e600fd0	0.21881032
103	0x3e838f92	0.25695473
104	0x3eb71ade	0.35762686
105	0x3e1f5a7c	0.15561861
106	0x3e90c510	0.28275347
107	0x3e1e4a60	0.1545806
108	0xbe28c768	-0.16482317
109	0xbe626ffb	-0.2211303
110	0xbea01f8c	-0.31274068
111	0x3ec26182	0.37965018
112	0xbeb7b4d7	-0.35880157
113	0x3e51c4cc	0.20485228
114	0xbdb03bb4	-0.086051375
115	0xbead28bb	-0.33820137
116	0xbeb74388	-0.3579371
117	0x3ea61620	0.32438755
118	0x3e73fb04	0.23826224
119	0xbd910c4c	-0.070824236
120	0x3dbda388	0.09259707
121	0xbe9a4630	-0.30131674
122	0x3e9ff984	0.31245053
123	0x3c36f920	0.0111677945
124	0xbe00e8a4	-0.12588745
125	0x3e58f170	0.21185851
126	0xbeb7f80a	-0.35931426
127	0xbe95890e	-0.29206127
128	0x3bb368c0	0.0054751337
129	0xbec1f272	-0.37880284
130	0xbe43a8b9	-0.19107331
131	0x3e77a62c	0.24184483
132	0xbce0c960	-0.027439773
133	0xbdc502f8	-0.09619707
134	0xbd873eec	-0.06603798
135	0x3e5a2228	0.21302092
136	0xbda3c038	-0.07995647
137	0xbcd1b870	-0.025600642
138	0xbe81ce32	-0.25352627
139	0xbcf56b30	-0.029958338
140	0xbea4d9f8	-0.32197547
141	0x3ece7fdc	0.40331924
142	0x3d7e03f0	0.062015474
143	0xbebdd897	-0.37079307
144	0xbc84c1c0	-0.016205668
145	0xbe9805e6	-0.29692
146	0xbdae7dd0	-0.085200906
147	0xbe8bd7f6	-0.27313203
148	0xbe5bf714	-0.21480972
149	0x3eb4547c	0.35220706
150	0xbe2b25c2	-0.16713622
151	0xbe81d899	-0.25360563
152	0x3e6743c4	0.22584444
153	0xbdeb91e0	-0.11502433
154	0x3e595bc0	0.21226406
155	0x3ddf1ce0	0.10894179
156	0xbe5d8219	-0.2163166
157	0x3e0f20b0	0.13977313
158	0xbe93c774	-0.28863108
159	0x3e9d3856	0.30707043
160	0xbbe2e6c0	-0.00692448
161	0x3e90becc	0.28270566
162	0x3e652200	0.22376251
163	0xbb687c00	-0.00354743
164	0x3ec45e4a	0.38353187
165	0x3e9d709e	0.30749983
166	0xbe8991f1	-0.26869157
167	0xbea6db40	-0.3258915
168	0x3d9de7f4	0.07710257
169	0xbe4d4a16	-0.20047793
170	0x3cbb7440	0.02288258
171	0xbd2bd180	-0.04194784
172	0x3eb42a12	0.35188347
173	0x3e1174d8	0.14204729
174	0xbe97f27e	-0.29677194
175	0x3d482b30	0.04886931
176	0x3ea37e72	0.31932408
177	0x3ec2f7aa	0.38079578
178	0x3d335f50	0.04379207
179	0xbea83cce	-0.3285889
180	0x3ca63c20	0.020292342
181	0xbc709180	-0.014683127
182	0x3ec41aa8	0.38301587
183	0x3ebddfec	0.370849
184	0xbdb3d960	-0.08781695
185	0x3ec19a88	0.3781321
186	0x3e5aee58	0.21379983
187	0x3e43c2a4	0.19117218
188	0xbe84b06c	-0.2591585
189	0xbc3a2560	-0.01136145
190	0x3d8f4ba4	0.06996849
191	0xbd619690	-0.05507523
192	0xbeb61915	-0.3556601
193	0x3eafdd38	0.34348464
194	0x3da65d28	0.08123237
195	0xbe6a14db	-0.22859518
196	0xbd52c0f0	-0.05145353
197	0xbe5d17a9	-0.21591057
198	0xbe27f67f	-0.16402625
199	0x3dc43bf0	0.09581745
200	0x3ecf0ccc	0.4043945
201	0x3e249410	0.16072106
202	0xbe09aa24	-0.1344381
203	0xbd023db0	-0.03179711
204	0xbe04eb82	-0.12980464
205	0x3dc31a98	0.09526557
206	0xbde17e28	-0.110103905
207	0x3ebb365e	0.36564916
208	0xbe91f44a	-0.2850669
209	0xbd6d7590	-0.057973444
210	0xbeb87bf0	-0.36032057
211	0x3ebbe286	0.3669626
212	0xbe19335c	-0.14960998
213	0x3b289900	0.002572596
214	0xbd621e58	-0.05520472
215	0x3e28f688	0.16500294
216	0xbecd7339	-0.4012697
217	0x3ebaf406	0.365143
218	0x3eb5d1f0	0.35511732
219	0xbe6ffbbe	-0.23435876
220	0x3ea17cb4	0.31540453
221	0xbe9e95c8	-0.3097365
222	0x3df1c850	0.11805785
223	0xbe8ca80a	-0.27471954
224	0xbec76a44	-0.38948262
225	0xbd7f3f90	-0.062316477
226	0x3e486464	0.19569546
227	0x3e7f8504	0.24953085
228	0xbe08a412	-0.13343838
229	0xbdf6645c	-0.12030861
230	0x3d6c0970	0.057626188
231	0x3eb25cbe	0.34836382
232	0x3da8b1fc	0.08237073
233	0x3d962a08	0.073322356
234	0x3eb3b33c	0.35097682
235	0x3e92c87c	0.28668582
236	0x3db705d0	0.089366555
237	0xbe16c86e	-0.14724895
238	0xbe2d73e8	-0.16938746
239	0x3d9afee8	0.07568151
240	0xbdfbf8c4	-0.12303308
241	0x3eb521d6	0.35377377
242	0xbe992ac8	-0.29915452
243	0xbe2da4fc	-0.16957468
244	0x3df2f9e8	0.11864072
245	0xbe82d0b2	-0.25549847
246	0x3e5e97b0	0.21737552
247	0x3e469670	0.19393325
248	0xbe0222b6	-0.12708554
249	0x3e70ba34	0.23508531
250	0xbc071d00	-0.00824666
251	0xbe3def1a	-0.18548241
252	0x3dc0a0a0	0.09405637
253	0xbd1d40c0	-0.03839183
254	0x3dad0978	0.08449072
255	0xbe87eb0a	-0.26546508

fc1.bias f4 [64]
0	0x3e12fa74	0.14353353
1	0x3e67f388	0.22651494
2	0xbe8ced80	-0.27524948
3	0xbe5c62c5	-0.21522053
4	0x3dc10e88	0.094266
5	0xbe736dfb	-0.23772423
6	0xbe0e9e6c	-0.1392762
7	0x3e96e3a2	0.29470545
8	0xbec62b5f	-0.38704965
9	0x3e828e16	0.25499028
10	0xbbdd9200	-0.0067617893
11	0x3d39a418	0.045322508
12	0xbe4cec0c	-0.2001192
13	0x3e3c7de8	0.18407404
14	0xbdff4e98	-0.124661624
15	0x3d3aba10	0.0455876
16	0xbe2d9fad	-0.16955443
17	0xbead6346	-0.33864802
18	0x3e7714c8	0.24129021
19	0x3d4cb888	0.04998067
20	0xbd79b7e8	-0.060966402
21	0xbe70c173	-0.23511295
22	0x3e25e910	0.16202188
23	0xbe0d9908	-0.13827908
24	0x3e96695a	0.29377252
25	0xbda8ad38	-0.08236164
26	0x3eb62e16	0.35582036
27	0x3e2c5e5c	0.1683287
28	0xbe4f6473	-0.20253162
29	0xbebc606c	-0.36792314
30	0x3eb0bedc	0.34520614
31	0x3d9988cc	0.07496795
32	0xbab72800	-0.0013973713
33	0x3ea82faa	0.32848865
34	0x3ec7e41e	0.39041227
35	0x3e05b108	0.13055813
36	0xbe757d70	-0.23973632
37	0x3d587e28	0.052854687
38	0xbd773a10	-0.060358107
39	0x3e9fc026	0.31201285
40	0x3ce623c0	0.028093219
41	0xbec211c5	-0.37904182
42	0x3de7e9d8	0.11323899
43	0xbe11e6fc	-0.1424827
44	0x3dae9334	0.085241705
45	0xbdf05834	-0.117355734
46	0xbd997fec	-0.07495102
47	0x3e5abd98	0.21361387
48	0xbed03432	-0.40664822
49	0xbca7fff0	-0.020507783
50	0x3eccb77a	0.39983732
51	0xbde96788	-0.113967
52	0xbbbb0140	-0.005706936
53	0x3ec94308	0.39308953
54	0x36bc0000	5.6028366e-06
55	0xbe9b6ec8	-0.30357957
56	0xbe20e86c	-0.15713662
57	0x3e4695ac	0.19393033
58	0xbe974b62	-0.295497
59	0x3ea84202	0.3286286
60	0xbe856d58	-0.26059985
61	0xbe81beab	-0.2534078
62	0xbe56a3b2	-0.20960882
63	0xbe2dfb75	-0.16990454

fc2.weight f4 [64, 64]
0	0x3d908730	0.07057035
1	0x3d965c56	0.073418304
2	0xbd91f58e	-0.07126914
3	0x3c7edff0	0.015556321
4	0x3d72efec	0.05931084
5	0xbdf74306	-0.120733306
6	0xbde3e77a	-0.11128135
7	0xbc7769f0	-0.015100941
8	0xbc298f50	-0.01034911
9	0x3ac11d80	0.0014733523
10	0x3db2eefe	0.087369904
11	0xbcd6e7a0	-0.026233494
12	0xbdff3542	-0.1246133
13	0xbd5ecd14	-0.054394796
14	0xbdc8ba02	-0.09801103
15	0x3d603cf0	0.054745615
16	0xbdff1bb4	-0.12456456
17	0xbd17029c	-0.036867723
18	0x3bf1af40	0.0073756278
19	0xbdeba646	-0.115063235
20	0xbc1b5780	-0.009481311
21	0x3c1698e0	0.009191722
22	0x3d676fac	0.056502983
23	0xbd566348	-0.052340776
24	0xbd99e0ac	-0.07513556
25	0xbd9e3d1a	-0.07726498
26	0xbd27dd40	-0.040982485
27	0x3cdf3568	0.027247146
28	0x3cb8d2e8	0.022561505
29	0x3d9b00b4	0.075684935
30	0xbcf376c8	-0.029719725
31	0x3bc5ac80	0.0060325265
32	0x3d9288e4	0.07155016
33	0xbd973488	-0.073830664
34	0xbd7fee00	-0.062482834
35	0xbd4ec7d4	-0.05048354
36	0xbda3deee	-0.08001505
37	0xbdd86e94	-0.10567966
38	0x3dc175a2	0.09446265
39	0xbd55d4ec	-0.05220501
40	0xbda7877c	-0.081801385
41	0xbdd76190	-0.105166554
42	0xbdbde50c	-0.09272203
43	0xbdd06334	-0.101751715
44	0x3de8dc44	0.11370137
45	0x3d984d5e	0.074366316
46	0xbda8974a	-0.08231981
47	0xbcf162b8	-0.029466018
48	0x3ad94c80	0.0016578585
49	0x3d641038	0.05567953
50	0x3d23d680	0.039999485
51	0xbcfa2b50	-0.030538231
52	0xbc7b10b0	-0.015323803
53	0x3df99b46	0.12187819
54	0xbc64b860	-0.013959974
55	0xbd913ae4	-0.070913106
56	0xbdfb2e4c	-0.1226469
57	0x3db6f37e	0.08933161
58	0x3d8b5206	0.06802754
59	0xbd170514	-0.036870077
60	0xbdd03fd0	-0.10168421
61	0xbcf2f8f8	-0.029659733
62	0xbccbb028	-0.024864271
63	0x3d929348	0.07156998
64	0xbc774bb0	-0.015093729
65	0xbd35d03c	-0.04438804
66	0x3d635360	0.055499434
67	0xbdd31460	-0.103066206
68	0x3d95fb30	0.07323301
69	0x3d3fd320	0.046832204
70	0x3daba776	0.0838155
71	0x3c1f1210	0.009708896
72	0xbda35b74	-0.07976428
73	0xbdada34c	-0.08478412
74	0x3d3065e8	0.043065935
75	0x3cabb0a0	0.020958245
76	0x3d9d37f6	0.07676689
77	0xbd8d8cf2	-0.06911649
78	0x3df35154	0.118807465
79	0x3df921ce	0.12164651
80	0x3dff7774	0.12473956
81	0xbca883d8	-0.02057068
82	0x3c001e40	0.007819712
83	0xbd9d887e	-0.076920494
84	0x3d194954	0.037423447
85	0xbc000b80	-0.007815242
86	0x3d028158	0.031861633
87	0xbc326ed0	-0.010890678
88	0x3db6d312	0.08926977
89	0x3dba3192	0.09091486
90	0xbd9065cc	-0.07050666
91	0xbd697ea8	-0.057005554
92	0xbd99ea62	-0.07515408
93	0x3d89c4f4	0.06727019
94	0x3dc142e8	0.094365895
95	0x3de531ee	0.11191164
96	0x3dde510c	0.10855302
97	0xbddea9de	-0.10872243
98	0xbdca02fe	-0.09863852
99	0x3c3d2aa0	0.011545807
100	0xbd456854	-0.0481952
101	0xbc1bd470	-0.009511098
102	0xbd89b39e	-0.067237124
103	0xbde15fde	-0.11004613
104	0x3d958698	0.07301062
105	0xbdfdb326	-0.123876855
106	0xbceb3428	-0.028711393
107	0xbdf7b23e	-0.12094544
108	0xbdad9374	-0.0847539
109	0xbc3c8640	-0.011506617
110	0xbda16500	-0.07880592
111	0x3d0eb44c	0.034839913
112	0xbd36e120	-0.04464829
113	0xbc891e10	-0.016737968
114	0xbdf42638	-0.11921352
115	0x3c9969a8	0.018727139
116	0xbc8dfa48	-0.017331257
117	0xbdad5f94	-0.08465496
118	0x3c6191f0	0.013767704
119	0x3d418c00	0.047252655
120	0x3d99b39c	0.07504961
121	0xbdedba14	-0.11607757
122	0xbd69042c	-0.056888744
123	0xbd5a4f10	-0.053298056
124	0xbc4e3090	-0.01258482
125	0x3d8a5384	0.067542106
126	0xbd2111c0	-0.03932357
127	0x3df9f460	0.12204814
128	0xbdfcc056	-0.12341373
129	0xbd8de57c	-0.06928536
130	0xbd89411c	-0.06701872
131	0x3d1bab34	0.03800507
132	0xbd54d05c	-0.05195652
133	0x3d907614	0.070537716
134	0xbd750ea0	-0.0598284
135	0xbd99f398	-0.07517165
136	0xbd2939b0	-0.04131478
137	0x3d6c4614	0.05768402
138	0x3cb84ce8	0.02249761
139	0x3d4f8318	0.05066213
140	0xbd863ece	-0.06554948
141	0xbd997fb0	-0.074950576
142	0x3d80f4c2	0.06296684
143	0x3d916410	0.070991635
144	0xbdcf9528	-0.10135871
145	0x3d08f3dc	0.033435687
146	0x3cd42e78	0.025901064
147	0xbdeacad2	-0.11464466
148	0x3d59a118	0.053132147
149	0x3c9c3dd0	0.019072443
150	0x3de9ff5e	0.114256606
151	0x3de8cb78	0.113669336
152	0xbdf0dd14	-0.11760917
153	0xbdb2bb78	-0.08727163
154	0xbdbb0e52	-0.09133591
155	0x3d41fdcc	0.04736118
156	0x3df3cc7a	0.11904235
157	0xbdd71008	-0.105011046
158	0xbd2e8f6c	-0.042617247
159	0xbd762bcc	-0.06010036
160	0xbda4a368	-0.0803898
161	0x3dddfb40	0.10838938
162	0x3db37fe4	0.087646276
163	0xbd9e1f52	-0.077208176
164	0x3dc8734a	0.09787615
165	0xbbf7c3e0	-0.007561192
166	0xbd952b58	-0.07283658
167	0x3d9eb874	0.077500254
168	0xbd99db36	-0.07512514
169	0x3d7d5fa0	0.061858773
170	0x3d4c3768	0.049857527
171	0x3d568c78	0.052380055
172	0xbde4a1fe	-0.1116371
173	0xbded0ffc	-0.115753144
174	0xbdb85d98	-0.090022266
175	0x3dcf67c0	0.101272106
176	0x3df199ec	0.117969364
177	0xbdab4b4e	-0.083639726
178	0x3d14daa8	0.03634134
179	0x3cd19be0	0.025587022
180	0x3c963038	0.01833354
181	0xbdb4f28a	-0.08835323
182	0x3defe586	0.117137
183	0x3d7e06ec	0.06201832
184	0xbcb819a0	-0.022473156
185	0x3c1f8160	0.009735435
186	0x3cd05500	0.025431156
187	0xbd29ee34	-0.041486934
188	0x3db521ae	0.088443145
189	0xbde85c72	-0.113457575
190	0x3d32a6e8	0.043616205
191	0xbc203ae0	-0.009779662
192	0xbd7dc1f0	-0.06195253
193	0xbd91a958	-0.07112378
194	0x3d35f7ac	0.04442565
195	0x3d8c6538	0.068552434
196	0x3d0d2250	0.03445655
197	0x3cbb8878	0.022892222
198	0xbba53060	-0.005041167
199	0xbd5c3cf4	-0.053769067
200	0xbddf8c9e	-0.109154925
201	0xbde89cd4	-0.113580376
202	0xbcc9a7f8	-0.024616227
203	0x3db34b7c	0.08754632
204	0x3be406a0	0.0069587976
205	0xbde5734e	-0.11203633
206	0x3d92c280	0.07166004
207	0x3df3d5f0	0.1190604
208	0xbcab4aa0	-0.020909607
209	0xbd863468	-0.065529644
210	0xbdc3f08c	-0.09567365
211	0xbcf206c8	-0.02954425
212	0x3dd68b2c	0.10475764
213	0x3b9e0140	0.0048219264
214	0xbd20ed14	-0.039288595
215	0x3da8bc28	0.08239013
216	0x3dc23f1c	0.094846934
217	0xbdee0586	-0.11622147
218	0x3d1c3d84	0.038144603
219	0x3def4566	0.116831586
220	0xbad54e00	-0.0016273856
221	0x3deeb952	0.11656441
222	0x3c1fe060	0.009758085
223	0xbda8e048	-0.08245903
224	0x3d85ec82	0.06539251
225	0x3d6a9904	0.057274833
226	0xbd5b6394	-0.053561762
227	0xbd59c73c	-0.05316852
228	0x3d50ec70	0.051006734
229	0xbd700504	-0.058598533
230	0xbb7c5840	-0.003850475
231	0xbdb059f2	-0.08610906
232	0x3d47db90	0.048793375
233	0x3dbb2a68	0.09138948
234	0xbdb7984e	-0.08964597
235	0xbdff37f4	-0.12461844
236	0xbbb994c0	-0.0056634843
237	0x3cbb3d90	0.022856504
238	0x3dcb912e	0.099398
239	0xbd55ba60	-0.052179694
240	0xbde0cbd0	-0.10976374
241	0xbc538f30	-0.0129125565
242	0xbd819dc4	-0.063289195
243	0x3d4b5e0c	0.049650237
244	0xbde6c3b2	-0.11267795
245	0xbd04aed0	-0.032393277
246	0xbd5c50fc	-0.05378817
247	0xbc177c10	-0.009245887
248	0x3cc0af58	0.02352111
249	0x3b4d9040	0.0031366497
250	0xbd268228	-0.04065147
251	0xbc0b77d0	-0.008512452
252	0x3dad44ec	0.084604114
253	0xbdb7b32a	-0.0896972
254	0xbd97b044	-0.07406667
255	0xbdd4fff0	-0.10400379

fc2.bias f4 [64]
0	0x3bd746e0	0.0065697283
1	0xbdd8d8e6	-0.10588245
2	0x3de17396	0.110083744
3	0x3ddab0be	0.10678242
4	0x3d925f6c	0.071471065
5	0x3df8ccae	0.121484146
6	0x3dffee60	0.12496638
7	0x3b95fb60	0.0045770854
8	0xbd2f8944	-0.042855516
9	0xbcdf4390	-0.027253896
10	0x3dc80304	0.097662
11	0xbde74ed4	-0.11294332
12	0x3bf91f40	0.0076026022
13	0xbcf01380	-0.029306173
14	0xbb5de240	-0.003385678
15	0xbbccafa0	-0.006246522
16	0xbdea89a0	-0.11452031
17	0x3ddcd67c	0.10783097
18	0x3bfc8740	0.0077065527
19	0xbde353bc	-0.110999554
20	0x3dd96072	0.106140986
21	0xbdd29960	-0.1028316
22	0xbc14b740	-0.009076893
23	0xbdd6fcb8	-0.10497421
24	0x3d275878	0.040855855
25	0xbd919b02	-0.071096435
26	0xbd1e11ac	-0.038591072
27	0xbcbbc5a8	-0.022921398
28	0x3b6a6fc0	0.0035772175
29	0x3cbe1bb8	0.023206577
30	0x3db408b0	0.087907195
31	0x3cf0ce90	0.029395372
32	0x3d4571dc	0.048204288
33	0x3dc2f40c	0.095192045
34	0x3d96a0d4	0.07354894
35	0xbd8e2252	-0.0694014
36	0x3c2fcd80	0.010730147
37	0x3d88b7d6	0.06675689
38	0xbd473c04	-0.04864122
39	0x3d9bcfa0	0.07607961
40	0x3dd01f7a	0.10162254
41	0xbd6c0158	-0.05761847
42	0xbdbaa13e	-0.09112786
43	0xbd63ed60	-0.0556463
44	0xbdd00258	-0.10156697
45	0x3ddbd174	0.107333094
46	0x3b724940	0.003696993
47	0x3ddceb56	0.10787074
48	0x3def34c2	0.11679985
49	0xbcca3400	-0.024682999
50	0x3dc3115a	0.09524794
51	0xbd3f06d0	-0.046637356
52	0xbdbbd8fe	-0.09172247
53	0xbdd97974	-0.106188685
54	0xbdccb876	-0.09996121
55	0xbdf883c4	-0.12134507
56	0xbdadb80a	-0.08482368
57	0xbd88c3aa	-0.06677945
58	0xbddade44	-0.10686925
59	0xbd0d0484	-0.034428135
60	0xbd78931c	-0.06068717
61	0x3d43e684	0.04782726
62	0xbd4fd108	-0.050736457
63	0xbd112d24	-0.03544344

v.weight f4 [1, 64]
0	0xbd194588	-0.037419826
1	0x3d2736d0	0.040823758
2	0x3d085d1c	0.03329192
3	0xbdc80ac0	-0.097676754
4	0x3cbeec90	0.023306161
5	0xbc8b94d0	-0.017038733
6	0x3c920460	0.017824352
7	0x3de2b4d6	0.11069648
8	0xbdbf0d28	-0.09328681
9	0x3d2f57f4	0.042808488
10	0xbd93891e	-0.072038874
11	0xbc37e760	-0.011224598
12	0xbc511dc0	-0.012763441
13	0x3cd12060	0.025528133
14	0xbde73a4e	-0.112904176
15	0xbccabf38	-0.024749383
16	0x3a504200	0.0007944405
17	0xbd6d4b10	-0.057932913
18	0x3d78f404	0.060779586
19	0x3d073494	0.033009127
20	0x3bb8fe20	0.0056455284
21	0xbd753728	-0.059867054
22	0xbdf8fa44	-0.121571094
23	0x3ddc01c0	0.10742521
24	0x3da31818	0.0796358
25	0x3d649adc	0.055811748
26	0xbddd91a2	-0.10818793
27	0x3dd86828	0.10566741
28	0xbd7caa38	-0.06168577
29	0x3d8d6e46	0.069057986
30	0x3a1f0700	0.0006066412
31	0x3d2641f0	0.040590227
32	0xbceefbc8	-0.029172793
33	0x3d9a9e60	0.07549739
34	0xbd9adace	-0.07561265
35	0xbd48a944	-0.04898955
36	0xbc1286c0	-0.00894326
37	0x3b8eba00	0.004355669
38	0xb98e3000	-0.00027120113
39	0xbd4afc34	-0.049556926
40	0xbcd9d1e8	-0.026589349
41	0xbca1bb90	-0.019742757
42	0xbdad30ec	-0.08456597
43	0xbd16a97c	-0.036782727
44	0x3c6186c0	0.013765037
45	0x3d9e8bfe	0.07741545
46	0x3d92ea60	0.0717361
47	0xbdda6c30	-0.106651664
48	0xbac03f80	-0.0014667362
49	0xbc9a6160	-0.01884526
50	0xbdd138d2	-0.10215916
51	0x3bb9e8e0	0.005673513
52	0xbdcbec8e	-0.099572286
53	0xbd2ce9c0	-0.04221511
54	0xbd410050	-0.04711944
55	0x3dae8618	0.0852167
56	0xbbd533a0	-0.0065063983
57	0xbd6caa24	-0.057779446
58	0xbd4fdc54	-0.05074723
59	0xbdf736f0	-0.12071025
60	0x3c680c60	0.014163107
61	0x3c99baf8	0.018765911
62	0x3de3fd96	0.11132352
63	0x3dea199e	0.11430667
